{"class_name": "Model", "config": {"name": "model_2", "layers": [{"name": "input_2", "class_name": "InputLayer", "config": {"batch_input_shape": [null, 224, 224, 3], "dtype": "float32", "sparse": false, "name": "input_2"}, "inbound_nodes": []}, {"name": "stem_conv1", "class_name": "Conv2D", "config": {"name": "stem_conv1", "trainable": true, "filters": 32, "kernel_size": [3, 3], "strides": [2, 2], "padding": "valid", "data_format": "channels_last", "dilation_rate": [1, 1], "activation": "linear", "use_bias": false, "kernel_initializer": {"class_name": "VarianceScaling", "config": {"scale": 2.0, "mode": "fan_in", "distribution": "normal", "seed": null}}, "bias_initializer": {"class_name": "Zeros", "config": {}}, "kernel_regularizer": null, "bias_regularizer": null, "activity_regularizer": null, "kernel_constraint": null, "bias_constraint": null}, "inbound_nodes": [[["input_2", 0, 0, {}]]]}, {"name": "stem_bn1", "class_name": "BatchNormalization", "config": {"name": "stem_bn1", "trainable": true, "axis": -1, "momentum": 0.9997, "epsilon": 0.001, "center": true, "scale": true, "beta_initializer": {"class_name": "Zeros", "config": {}}, "gamma_initializer": {"class_name": "Ones", "config": {}}, "moving_mean_initializer": {"class_name": "Zeros", "config": {}}, "moving_variance_initializer": {"class_name": "Ones", "config": {}}, "beta_regularizer": null, "gamma_regularizer": null, "beta_constraint": null, "gamma_constraint": null}, "inbound_nodes": [[["stem_conv1", 0, 0, {}]]]}, {"name": "activation_261", "class_name": "Activation", "config": {"name": "activation_261", "trainable": true, "activation": "relu"}, "inbound_nodes": [[["stem_bn1", 0, 0, {}]]]}, {"name": "reduction_conv_1_stem_1", "class_name": "Conv2D", "config": {"name": "reduction_conv_1_stem_1", "trainable": true, "filters": 11, "kernel_size": [1, 1], "strides": [1, 1], "padding": "same", "data_format": "channels_last", "dilation_rate": [1, 1], "activation": "linear", "use_bias": false, "kernel_initializer": {"class_name": "VarianceScaling", "config": {"scale": 2.0, "mode": "fan_in", "distribution": "normal", "seed": null}}, "bias_initializer": {"class_name": "Zeros", "config": {}}, "kernel_regularizer": null, "bias_regularizer": null, "activity_regularizer": null, "kernel_constraint": null, "bias_constraint": null}, "inbound_nodes": [[["activation_261", 0, 0, {}]]]}, {"name": "reduction_bn_1_stem_1", "class_name": "BatchNormalization", "config": {"name": "reduction_bn_1_stem_1", "trainable": true, "axis": -1, "momentum": 0.9997, "epsilon": 0.001, "center": true, "scale": true, "beta_initializer": {"class_name": "Zeros", "config": {}}, "gamma_initializer": {"class_name": "Ones", "config": {}}, "moving_mean_initializer": {"class_name": "Zeros", "config": {}}, "moving_variance_initializer": {"class_name": "Ones", "config": {}}, "beta_regularizer": null, "gamma_regularizer": null, "beta_constraint": null, "gamma_constraint": null}, "inbound_nodes": [[["reduction_conv_1_stem_1", 0, 0, {}]]]}, {"name": "activation_262", "class_name": "Activation", "config": {"name": "activation_262", "trainable": true, "activation": "relu"}, "inbound_nodes": [[["reduction_bn_1_stem_1", 0, 0, {}]]]}, {"name": "activation_264", "class_name": "Activation", "config": {"name": "activation_264", "trainable": true, "activation": "relu"}, "inbound_nodes": [[["stem_bn1", 0, 0, {}]]]}, {"name": "separable_conv_1_pad_reduction_left1_stem_1", "class_name": "ZeroPadding2D", "config": {"name": "separable_conv_1_pad_reduction_left1_stem_1", "trainable": true, "padding": [[2, 2], [2, 2]], "data_format": "channels_last"}, "inbound_nodes": [[["activation_262", 0, 0, {}]]]}, {"name": "separable_conv_1_pad_reduction_right1_stem_1", "class_name": "ZeroPadding2D", "config": {"name": "separable_conv_1_pad_reduction_right1_stem_1", "trainable": true, "padding": [[3, 3], [3, 3]], "data_format": "channels_last"}, "inbound_nodes": [[["activation_264", 0, 0, {}]]]}, {"name": "separable_conv_1_reduction_left1_stem_1", "class_name": "SeparableConv2D", "config": {"name": "separable_conv_1_reduction_left1_stem_1", "trainable": true, "filters": 11, "kernel_size": [5, 5], "strides": [2, 2], "padding": "valid", "data_format": "channels_last", "dilation_rate": [1, 1], "activation": "linear", "use_bias": false, "bias_initializer": {"class_name": "Zeros", "config": {}}, "bias_regularizer": null, "activity_regularizer": null, "bias_constraint": null, "depth_multiplier": 1, "depthwise_initializer": {"class_name": "VarianceScaling", "config": {"scale": 1.0, "mode": "fan_avg", "distribution": "uniform", "seed": null}}, "pointwise_initializer": {"class_name": "VarianceScaling", "config": {"scale": 1.0, "mode": "fan_avg", "distribution": "uniform", "seed": null}}, "depthwise_regularizer": null, "pointwise_regularizer": null, "depthwise_constraint": null, "pointwise_constraint": null}, "inbound_nodes": [[["separable_conv_1_pad_reduction_left1_stem_1", 0, 0, {}]]]}, {"name": "separable_conv_1_reduction_right1_stem_1", "class_name": "SeparableConv2D", "config": {"name": "separable_conv_1_reduction_right1_stem_1", "trainable": true, "filters": 11, "kernel_size": [7, 7], "strides": [2, 2], "padding": "valid", "data_format": "channels_last", "dilation_rate": [1, 1], "activation": "linear", "use_bias": false, "bias_initializer": {"class_name": "Zeros", "config": {}}, "bias_regularizer": null, "activity_regularizer": null, "bias_constraint": null, "depth_multiplier": 1, "depthwise_initializer": {"class_name": "VarianceScaling", "config": {"scale": 1.0, "mode": "fan_avg", "distribution": "uniform", "seed": null}}, "pointwise_initializer": {"class_name": "VarianceScaling", "config": {"scale": 1.0, "mode": "fan_avg", "distribution": "uniform", "seed": null}}, "depthwise_regularizer": null, "pointwise_regularizer": null, "depthwise_constraint": null, "pointwise_constraint": null}, "inbound_nodes": [[["separable_conv_1_pad_reduction_right1_stem_1", 0, 0, {}]]]}, {"name": "separable_conv_1_bn_reduction_left1_stem_1", "class_name": "BatchNormalization", "config": {"name": "separable_conv_1_bn_reduction_left1_stem_1", "trainable": true, "axis": -1, "momentum": 0.9997, "epsilon": 0.001, "center": true, "scale": true, "beta_initializer": {"class_name": "Zeros", "config": {}}, "gamma_initializer": {"class_name": "Ones", "config": {}}, "moving_mean_initializer": {"class_name": "Zeros", "config": {}}, "moving_variance_initializer": {"class_name": "Ones", "config": {}}, "beta_regularizer": null, "gamma_regularizer": null, "beta_constraint": null, "gamma_constraint": null}, "inbound_nodes": [[["separable_conv_1_reduction_left1_stem_1", 0, 0, {}]]]}, {"name": "separable_conv_1_bn_reduction_right1_stem_1", "class_name": "BatchNormalization", "config": {"name": "separable_conv_1_bn_reduction_right1_stem_1", "trainable": true, "axis": -1, "momentum": 0.9997, "epsilon": 0.001, "center": true, "scale": true, "beta_initializer": {"class_name": "Zeros", "config": {}}, "gamma_initializer": {"class_name": "Ones", "config": {}}, "moving_mean_initializer": {"class_name": "Zeros", "config": {}}, "moving_variance_initializer": {"class_name": "Ones", "config": {}}, "beta_regularizer": null, "gamma_regularizer": null, "beta_constraint": null, "gamma_constraint": null}, "inbound_nodes": [[["separable_conv_1_reduction_right1_stem_1", 0, 0, {}]]]}, {"name": "activation_263", "class_name": "Activation", "config": {"name": "activation_263", "trainable": true, "activation": "relu"}, "inbound_nodes": [[["separable_conv_1_bn_reduction_left1_stem_1", 0, 0, {}]]]}, {"name": "activation_265", "class_name": "Activation", "config": {"name": "activation_265", "trainable": true, "activation": "relu"}, "inbound_nodes": [[["separable_conv_1_bn_reduction_right1_stem_1", 0, 0, {}]]]}, {"name": "separable_conv_2_reduction_left1_stem_1", "class_name": "SeparableConv2D", "config": {"name": "separable_conv_2_reduction_left1_stem_1", "trainable": true, "filters": 11, "kernel_size": [5, 5], "strides": [1, 1], "padding": "same", "data_format": "channels_last", "dilation_rate": [1, 1], "activation": "linear", "use_bias": false, "bias_initializer": {"class_name": "Zeros", "config": {}}, "bias_regularizer": null, "activity_regularizer": null, "bias_constraint": null, "depth_multiplier": 1, "depthwise_initializer": {"class_name": "VarianceScaling", "config": {"scale": 1.0, "mode": "fan_avg", "distribution": "uniform", "seed": null}}, "pointwise_initializer": {"class_name": "VarianceScaling", "config": {"scale": 1.0, "mode": "fan_avg", "distribution": "uniform", "seed": null}}, "depthwise_regularizer": null, "pointwise_regularizer": null, "depthwise_constraint": null, "pointwise_constraint": null}, "inbound_nodes": [[["activation_263", 0, 0, {}]]]}, {"name": "separable_conv_2_reduction_right1_stem_1", "class_name": "SeparableConv2D", "config": {"name": "separable_conv_2_reduction_right1_stem_1", "trainable": true, "filters": 11, "kernel_size": [7, 7], "strides": [1, 1], "padding": "same", "data_format": "channels_last", "dilation_rate": [1, 1], "activation": "linear", "use_bias": false, "bias_initializer": {"class_name": "Zeros", "config": {}}, "bias_regularizer": null, "activity_regularizer": null, "bias_constraint": null, "depth_multiplier": 1, "depthwise_initializer": {"class_name": "VarianceScaling", "config": {"scale": 1.0, "mode": "fan_avg", "distribution": "uniform", "seed": null}}, "pointwise_initializer": {"class_name": "VarianceScaling", "config": {"scale": 1.0, "mode": "fan_avg", "distribution": "uniform", "seed": null}}, "depthwise_regularizer": null, "pointwise_regularizer": null, "depthwise_constraint": null, "pointwise_constraint": null}, "inbound_nodes": [[["activation_265", 0, 0, {}]]]}, {"name": "activation_266", "class_name": "Activation", "config": {"name": "activation_266", "trainable": true, "activation": "relu"}, "inbound_nodes": [[["stem_bn1", 0, 0, {}]]]}, {"name": "separable_conv_2_bn_reduction_left1_stem_1", "class_name": "BatchNormalization", "config": {"name": "separable_conv_2_bn_reduction_left1_stem_1", "trainable": true, "axis": -1, "momentum": 0.9997, "epsilon": 0.001, "center": true, "scale": true, "beta_initializer": {"class_name": "Zeros", "config": {}}, "gamma_initializer": {"class_name": "Ones", "config": {}}, "moving_mean_initializer": {"class_name": "Zeros", "config": {}}, "moving_variance_initializer": {"class_name": "Ones", "config": {}}, "beta_regularizer": null, "gamma_regularizer": null, "beta_constraint": null, "gamma_constraint": null}, "inbound_nodes": [[["separable_conv_2_reduction_left1_stem_1", 0, 0, {}]]]}, {"name": "separable_conv_2_bn_reduction_right1_stem_1", "class_name": "BatchNormalization", "config": {"name": "separable_conv_2_bn_reduction_right1_stem_1", "trainable": true, "axis": -1, "momentum": 0.9997, "epsilon": 0.001, "center": true, "scale": true, "beta_initializer": {"class_name": "Zeros", "config": {}}, "gamma_initializer": {"class_name": "Ones", "config": {}}, "moving_mean_initializer": {"class_name": "Zeros", "config": {}}, "moving_variance_initializer": {"class_name": "Ones", "config": {}}, "beta_regularizer": null, "gamma_regularizer": null, "beta_constraint": null, "gamma_constraint": null}, "inbound_nodes": [[["separable_conv_2_reduction_right1_stem_1", 0, 0, {}]]]}, {"name": "separable_conv_1_pad_reduction_right2_stem_1", "class_name": "ZeroPadding2D", "config": {"name": "separable_conv_1_pad_reduction_right2_stem_1", "trainable": true, "padding": [[3, 3], [3, 3]], "data_format": "channels_last"}, "inbound_nodes": [[["activation_266", 0, 0, {}]]]}, {"name": "activation_268", "class_name": "Activation", "config": {"name": "activation_268", "trainable": true, "activation": "relu"}, "inbound_nodes": [[["stem_bn1", 0, 0, {}]]]}, {"name": "reduction_add_1_stem_1", "class_name": "Add", "config": {"name": "reduction_add_1_stem_1", "trainable": true}, "inbound_nodes": [[["separable_conv_2_bn_reduction_left1_stem_1", 0, 0, {}], ["separable_conv_2_bn_reduction_right1_stem_1", 0, 0, {}]]]}, {"name": "separable_conv_1_reduction_right2_stem_1", "class_name": "SeparableConv2D", "config": {"name": "separable_conv_1_reduction_right2_stem_1", "trainable": true, "filters": 11, "kernel_size": [7, 7], "strides": [2, 2], "padding": "valid", "data_format": "channels_last", "dilation_rate": [1, 1], "activation": "linear", "use_bias": false, "bias_initializer": {"class_name": "Zeros", "config": {}}, "bias_regularizer": null, "activity_regularizer": null, "bias_constraint": null, "depth_multiplier": 1, "depthwise_initializer": {"class_name": "VarianceScaling", "config": {"scale": 1.0, "mode": "fan_avg", "distribution": "uniform", "seed": null}}, "pointwise_initializer": {"class_name": "VarianceScaling", "config": {"scale": 1.0, "mode": "fan_avg", "distribution": "uniform", "seed": null}}, "depthwise_regularizer": null, "pointwise_regularizer": null, "depthwise_constraint": null, "pointwise_constraint": null}, "inbound_nodes": [[["separable_conv_1_pad_reduction_right2_stem_1", 0, 0, {}]]]}, {"name": "separable_conv_1_pad_reduction_right3_stem_1", "class_name": "ZeroPadding2D", "config": {"name": "separable_conv_1_pad_reduction_right3_stem_1", "trainable": true, "padding": [[2, 2], [2, 2]], "data_format": "channels_last"}, "inbound_nodes": [[["activation_268", 0, 0, {}]]]}, {"name": "activation_270", "class_name": "Activation", "config": {"name": "activation_270", "trainable": true, "activation": "relu"}, "inbound_nodes": [[["reduction_add_1_stem_1", 0, 0, {}]]]}, {"name": "separable_conv_1_bn_reduction_right2_stem_1", "class_name": "BatchNormalization", "config": {"name": "separable_conv_1_bn_reduction_right2_stem_1", "trainable": true, "axis": -1, "momentum": 0.9997, "epsilon": 0.001, "center": true, "scale": true, "beta_initializer": {"class_name": "Zeros", "config": {}}, "gamma_initializer": {"class_name": "Ones", "config": {}}, "moving_mean_initializer": {"class_name": "Zeros", "config": {}}, "moving_variance_initializer": {"class_name": "Ones", "config": {}}, "beta_regularizer": null, "gamma_regularizer": null, "beta_constraint": null, "gamma_constraint": null}, "inbound_nodes": [[["separable_conv_1_reduction_right2_stem_1", 0, 0, {}]]]}, {"name": "separable_conv_1_reduction_right3_stem_1", "class_name": "SeparableConv2D", "config": {"name": "separable_conv_1_reduction_right3_stem_1", "trainable": true, "filters": 11, "kernel_size": [5, 5], "strides": [2, 2], "padding": "valid", "data_format": "channels_last", "dilation_rate": [1, 1], "activation": "linear", "use_bias": false, "bias_initializer": {"class_name": "Zeros", "config": {}}, "bias_regularizer": null, "activity_regularizer": null, "bias_constraint": null, "depth_multiplier": 1, "depthwise_initializer": {"class_name": "VarianceScaling", "config": {"scale": 1.0, "mode": "fan_avg", "distribution": "uniform", "seed": null}}, "pointwise_initializer": {"class_name": "VarianceScaling", "config": {"scale": 1.0, "mode": "fan_avg", "distribution": "uniform", "seed": null}}, "depthwise_regularizer": null, "pointwise_regularizer": null, "depthwise_constraint": null, "pointwise_constraint": null}, "inbound_nodes": [[["separable_conv_1_pad_reduction_right3_stem_1", 0, 0, {}]]]}, {"name": "separable_conv_1_reduction_left4_stem_1", "class_name": "SeparableConv2D", "config": {"name": "separable_conv_1_reduction_left4_stem_1", "trainable": true, "filters": 11, "kernel_size": [3, 3], "strides": [1, 1], "padding": "same", "data_format": "channels_last", "dilation_rate": [1, 1], "activation": "linear", "use_bias": false, "bias_initializer": {"class_name": "Zeros", "config": {}}, "bias_regularizer": null, "activity_regularizer": null, "bias_constraint": null, "depth_multiplier": 1, "depthwise_initializer": {"class_name": "VarianceScaling", "config": {"scale": 1.0, "mode": "fan_avg", "distribution": "uniform", "seed": null}}, "pointwise_initializer": {"class_name": "VarianceScaling", "config": {"scale": 1.0, "mode": "fan_avg", "distribution": "uniform", "seed": null}}, "depthwise_regularizer": null, "pointwise_regularizer": null, "depthwise_constraint": null, "pointwise_constraint": null}, "inbound_nodes": [[["activation_270", 0, 0, {}]]]}, {"name": "activation_267", "class_name": "Activation", "config": {"name": "activation_267", "trainable": true, "activation": "relu"}, "inbound_nodes": [[["separable_conv_1_bn_reduction_right2_stem_1", 0, 0, {}]]]}, {"name": "separable_conv_1_bn_reduction_right3_stem_1", "class_name": "BatchNormalization", "config": {"name": "separable_conv_1_bn_reduction_right3_stem_1", "trainable": true, "axis": -1, "momentum": 0.9997, "epsilon": 0.001, "center": true, "scale": true, "beta_initializer": {"class_name": "Zeros", "config": {}}, "gamma_initializer": {"class_name": "Ones", "config": {}}, "moving_mean_initializer": {"class_name": "Zeros", "config": {}}, "moving_variance_initializer": {"class_name": "Ones", "config": {}}, "beta_regularizer": null, "gamma_regularizer": null, "beta_constraint": null, "gamma_constraint": null}, "inbound_nodes": [[["separable_conv_1_reduction_right3_stem_1", 0, 0, {}]]]}, {"name": "separable_conv_1_bn_reduction_left4_stem_1", "class_name": "BatchNormalization", "config": {"name": "separable_conv_1_bn_reduction_left4_stem_1", "trainable": true, "axis": -1, "momentum": 0.9997, "epsilon": 0.001, "center": true, "scale": true, "beta_initializer": {"class_name": "Zeros", "config": {}}, "gamma_initializer": {"class_name": "Ones", "config": {}}, "moving_mean_initializer": {"class_name": "Zeros", "config": {}}, "moving_variance_initializer": {"class_name": "Ones", "config": {}}, "beta_regularizer": null, "gamma_regularizer": null, "beta_constraint": null, "gamma_constraint": null}, "inbound_nodes": [[["separable_conv_1_reduction_left4_stem_1", 0, 0, {}]]]}, {"name": "reduction_pad_1_stem_1", "class_name": "ZeroPadding2D", "config": {"name": "reduction_pad_1_stem_1", "trainable": true, "padding": [[1, 1], [1, 1]], "data_format": "channels_last"}, "inbound_nodes": [[["reduction_bn_1_stem_1", 0, 0, {}]]]}, {"name": "separable_conv_2_reduction_right2_stem_1", "class_name": "SeparableConv2D", "config": {"name": "separable_conv_2_reduction_right2_stem_1", "trainable": true, "filters": 11, "kernel_size": [7, 7], "strides": [1, 1], "padding": "same", "data_format": "channels_last", "dilation_rate": [1, 1], "activation": "linear", "use_bias": false, "bias_initializer": {"class_name": "Zeros", "config": {}}, "bias_regularizer": null, "activity_regularizer": null, "bias_constraint": null, "depth_multiplier": 1, "depthwise_initializer": {"class_name": "VarianceScaling", "config": {"scale": 1.0, "mode": "fan_avg", "distribution": "uniform", "seed": null}}, "pointwise_initializer": {"class_name": "VarianceScaling", "config": {"scale": 1.0, "mode": "fan_avg", "distribution": "uniform", "seed": null}}, "depthwise_regularizer": null, "pointwise_regularizer": null, "depthwise_constraint": null, "pointwise_constraint": null}, "inbound_nodes": [[["activation_267", 0, 0, {}]]]}, {"name": "activation_269", "class_name": "Activation", "config": {"name": "activation_269", "trainable": true, "activation": "relu"}, "inbound_nodes": [[["separable_conv_1_bn_reduction_right3_stem_1", 0, 0, {}]]]}, {"name": "activation_271", "class_name": "Activation", "config": {"name": "activation_271", "trainable": true, "activation": "relu"}, "inbound_nodes": [[["separable_conv_1_bn_reduction_left4_stem_1", 0, 0, {}]]]}, {"name": "reduction_left2_stem_1", "class_name": "MaxPooling2D", "config": {"name": "reduction_left2_stem_1", "trainable": true, "pool_size": [3, 3], "padding": "valid", "strides": [2, 2], "data_format": "channels_last"}, "inbound_nodes": [[["reduction_pad_1_stem_1", 0, 0, {}]]]}, {"name": "separable_conv_2_bn_reduction_right2_stem_1", "class_name": "BatchNormalization", "config": {"name": "separable_conv_2_bn_reduction_right2_stem_1", "trainable": true, "axis": -1, "momentum": 0.9997, "epsilon": 0.001, "center": true, "scale": true, "beta_initializer": {"class_name": "Zeros", "config": {}}, "gamma_initializer": {"class_name": "Ones", "config": {}}, "moving_mean_initializer": {"class_name": "Zeros", "config": {}}, "moving_variance_initializer": {"class_name": "Ones", "config": {}}, "beta_regularizer": null, "gamma_regularizer": null, "beta_constraint": null, "gamma_constraint": null}, "inbound_nodes": [[["separable_conv_2_reduction_right2_stem_1", 0, 0, {}]]]}, {"name": "separable_conv_2_reduction_right3_stem_1", "class_name": "SeparableConv2D", "config": {"name": "separable_conv_2_reduction_right3_stem_1", "trainable": true, "filters": 11, "kernel_size": [5, 5], "strides": [1, 1], "padding": "same", "data_format": "channels_last", "dilation_rate": [1, 1], "activation": "linear", "use_bias": false, "bias_initializer": {"class_name": "Zeros", "config": {}}, "bias_regularizer": null, "activity_regularizer": null, "bias_constraint": null, "depth_multiplier": 1, "depthwise_initializer": {"class_name": "VarianceScaling", "config": {"scale": 1.0, "mode": "fan_avg", "distribution": "uniform", "seed": null}}, "pointwise_initializer": {"class_name": "VarianceScaling", "config": {"scale": 1.0, "mode": "fan_avg", "distribution": "uniform", "seed": null}}, "depthwise_regularizer": null, "pointwise_regularizer": null, "depthwise_constraint": null, "pointwise_constraint": null}, "inbound_nodes": [[["activation_269", 0, 0, {}]]]}, {"name": "separable_conv_2_reduction_left4_stem_1", "class_name": "SeparableConv2D", "config": {"name": "separable_conv_2_reduction_left4_stem_1", "trainable": true, "filters": 11, "kernel_size": [3, 3], "strides": [1, 1], "padding": "same", "data_format": "channels_last", "dilation_rate": [1, 1], "activation": "linear", "use_bias": false, "bias_initializer": {"class_name": "Zeros", "config": {}}, "bias_regularizer": null, "activity_regularizer": null, "bias_constraint": null, "depth_multiplier": 1, "depthwise_initializer": {"class_name": "VarianceScaling", "config": {"scale": 1.0, "mode": "fan_avg", "distribution": "uniform", "seed": null}}, "pointwise_initializer": {"class_name": "VarianceScaling", "config": {"scale": 1.0, "mode": "fan_avg", "distribution": "uniform", "seed": null}}, "depthwise_regularizer": null, "pointwise_regularizer": null, "depthwise_constraint": null, "pointwise_constraint": null}, "inbound_nodes": [[["activation_271", 0, 0, {}]]]}, {"name": "adjust_relu_1_stem_2", "class_name": "Activation", "config": {"name": "adjust_relu_1_stem_2", "trainable": true, "activation": "relu"}, "inbound_nodes": [[["stem_bn1", 0, 0, {}]]]}, {"name": "reduction_add_2_stem_1", "class_name": "Add", "config": {"name": "reduction_add_2_stem_1", "trainable": true}, "inbound_nodes": [[["reduction_left2_stem_1", 0, 0, {}], ["separable_conv_2_bn_reduction_right2_stem_1", 0, 0, {}]]]}, {"name": "reduction_left3_stem_1", "class_name": "AveragePooling2D", "config": {"name": "reduction_left3_stem_1", "trainable": true, "pool_size": [3, 3], "padding": "valid", "strides": [2, 2], "data_format": "channels_last"}, "inbound_nodes": [[["reduction_pad_1_stem_1", 0, 0, {}]]]}, {"name": "separable_conv_2_bn_reduction_right3_stem_1", "class_name": "BatchNormalization", "config": {"name": "separable_conv_2_bn_reduction_right3_stem_1", "trainable": true, "axis": -1, "momentum": 0.9997, "epsilon": 0.001, "center": true, "scale": true, "beta_initializer": {"class_name": "Zeros", "config": {}}, "gamma_initializer": {"class_name": "Ones", "config": {}}, "moving_mean_initializer": {"class_name": "Zeros", "config": {}}, "moving_variance_initializer": {"class_name": "Ones", "config": {}}, "beta_regularizer": null, "gamma_regularizer": null, "beta_constraint": null, "gamma_constraint": null}, "inbound_nodes": [[["separable_conv_2_reduction_right3_stem_1", 0, 0, {}]]]}, {"name": "reduction_left4_stem_1", "class_name": "AveragePooling2D", "config": {"name": "reduction_left4_stem_1", "trainable": true, "pool_size": [3, 3], "padding": "same", "strides": [1, 1], "data_format": "channels_last"}, "inbound_nodes": [[["reduction_add_1_stem_1", 0, 0, {}]]]}, {"name": "separable_conv_2_bn_reduction_left4_stem_1", "class_name": "BatchNormalization", "config": {"name": "separable_conv_2_bn_reduction_left4_stem_1", "trainable": true, "axis": -1, "momentum": 0.9997, "epsilon": 0.001, "center": true, "scale": true, "beta_initializer": {"class_name": "Zeros", "config": {}}, "gamma_initializer": {"class_name": "Ones", "config": {}}, "moving_mean_initializer": {"class_name": "Zeros", "config": {}}, "moving_variance_initializer": {"class_name": "Ones", "config": {}}, "beta_regularizer": null, "gamma_regularizer": null, "beta_constraint": null, "gamma_constraint": null}, "inbound_nodes": [[["separable_conv_2_reduction_left4_stem_1", 0, 0, {}]]]}, {"name": "reduction_right5_stem_1", "class_name": "MaxPooling2D", "config": {"name": "reduction_right5_stem_1", "trainable": true, "pool_size": [3, 3], "padding": "valid", "strides": [2, 2], "data_format": "channels_last"}, "inbound_nodes": [[["reduction_pad_1_stem_1", 0, 0, {}]]]}, {"name": "zero_padding2d_5", "class_name": "ZeroPadding2D", "config": {"name": "zero_padding2d_5", "trainable": true, "padding": [[0, 1], [0, 1]], "data_format": "channels_last"}, "inbound_nodes": [[["adjust_relu_1_stem_2", 0, 0, {}]]]}, {"name": "reduction_add3_stem_1", "class_name": "Add", "config": {"name": "reduction_add3_stem_1", "trainable": true}, "inbound_nodes": [[["reduction_left3_stem_1", 0, 0, {}], ["separable_conv_2_bn_reduction_right3_stem_1", 0, 0, {}]]]}, {"name": "add_5", "class_name": "Add", "config": {"name": "add_5", "trainable": true}, "inbound_nodes": [[["reduction_add_2_stem_1", 0, 0, {}], ["reduction_left4_stem_1", 0, 0, {}]]]}, {"name": "reduction_add4_stem_1", "class_name": "Add", "config": {"name": "reduction_add4_stem_1", "trainable": true}, "inbound_nodes": [[["separable_conv_2_bn_reduction_left4_stem_1", 0, 0, {}], ["reduction_right5_stem_1", 0, 0, {}]]]}, {"name": "cropping2d_5", "class_name": "Cropping2D", "config": {"name": "cropping2d_5", "trainable": true, "cropping": [[1, 0], [1, 0]], "data_format": "channels_last"}, "inbound_nodes": [[["zero_padding2d_5", 0, 0, {}]]]}, {"name": "reduction_concat_stem_1", "class_name": "Concatenate", "config": {"name": "reduction_concat_stem_1", "trainable": true, "axis": -1}, "inbound_nodes": [[["reduction_add_2_stem_1", 0, 0, {}], ["reduction_add3_stem_1", 0, 0, {}], ["add_5", 0, 0, {}], ["reduction_add4_stem_1", 0, 0, {}]]]}, {"name": "adjust_avg_pool_1_stem_2", "class_name": "AveragePooling2D", "config": {"name": "adjust_avg_pool_1_stem_2", "trainable": true, "pool_size": [1, 1], "padding": "valid", "strides": [2, 2], "data_format": "channels_last"}, "inbound_nodes": [[["adjust_relu_1_stem_2", 0, 0, {}]]]}, {"name": "adjust_avg_pool_2_stem_2", "class_name": "AveragePooling2D", "config": {"name": "adjust_avg_pool_2_stem_2", "trainable": true, "pool_size": [1, 1], "padding": "valid", "strides": [2, 2], "data_format": "channels_last"}, "inbound_nodes": [[["cropping2d_5", 0, 0, {}]]]}, {"name": "activation_272", "class_name": "Activation", "config": {"name": "activation_272", "trainable": true, "activation": "relu"}, "inbound_nodes": [[["reduction_concat_stem_1", 0, 0, {}]]]}, {"name": "adjust_conv_1_stem_2", "class_name": "Conv2D", "config": {"name": "adjust_conv_1_stem_2", "trainable": true, "filters": 11, "kernel_size": [1, 1], "strides": [1, 1], "padding": "same", "data_format": "channels_last", "dilation_rate": [1, 1], "activation": "linear", "use_bias": false, "kernel_initializer": {"class_name": "VarianceScaling", "config": {"scale": 2.0, "mode": "fan_in", "distribution": "normal", "seed": null}}, "bias_initializer": {"class_name": "Zeros", "config": {}}, "kernel_regularizer": null, "bias_regularizer": null, "activity_regularizer": null, "kernel_constraint": null, "bias_constraint": null}, "inbound_nodes": [[["adjust_avg_pool_1_stem_2", 0, 0, {}]]]}, {"name": "adjust_conv_2_stem_2", "class_name": "Conv2D", "config": {"name": "adjust_conv_2_stem_2", "trainable": true, "filters": 11, "kernel_size": [1, 1], "strides": [1, 1], "padding": "same", "data_format": "channels_last", "dilation_rate": [1, 1], "activation": "linear", "use_bias": false, "kernel_initializer": {"class_name": "VarianceScaling", "config": {"scale": 2.0, "mode": "fan_in", "distribution": "normal", "seed": null}}, "bias_initializer": {"class_name": "Zeros", "config": {}}, "kernel_regularizer": null, "bias_regularizer": null, "activity_regularizer": null, "kernel_constraint": null, "bias_constraint": null}, "inbound_nodes": [[["adjust_avg_pool_2_stem_2", 0, 0, {}]]]}, {"name": "reduction_conv_1_stem_2", "class_name": "Conv2D", "config": {"name": "reduction_conv_1_stem_2", "trainable": true, "filters": 22, "kernel_size": [1, 1], "strides": [1, 1], "padding": "same", "data_format": "channels_last", "dilation_rate": [1, 1], "activation": "linear", "use_bias": false, "kernel_initializer": {"class_name": "VarianceScaling", "config": {"scale": 2.0, "mode": "fan_in", "distribution": "normal", "seed": null}}, "bias_initializer": {"class_name": "Zeros", "config": {}}, "kernel_regularizer": null, "bias_regularizer": null, "activity_regularizer": null, "kernel_constraint": null, "bias_constraint": null}, "inbound_nodes": [[["activation_272", 0, 0, {}]]]}, {"name": "concatenate_5", "class_name": "Concatenate", "config": {"name": "concatenate_5", "trainable": true, "axis": -1}, "inbound_nodes": [[["adjust_conv_1_stem_2", 0, 0, {}], ["adjust_conv_2_stem_2", 0, 0, {}]]]}, {"name": "reduction_bn_1_stem_2", "class_name": "BatchNormalization", "config": {"name": "reduction_bn_1_stem_2", "trainable": true, "axis": -1, "momentum": 0.9997, "epsilon": 0.001, "center": true, "scale": true, "beta_initializer": {"class_name": "Zeros", "config": {}}, "gamma_initializer": {"class_name": "Ones", "config": {}}, "moving_mean_initializer": {"class_name": "Zeros", "config": {}}, "moving_variance_initializer": {"class_name": "Ones", "config": {}}, "beta_regularizer": null, "gamma_regularizer": null, "beta_constraint": null, "gamma_constraint": null}, "inbound_nodes": [[["reduction_conv_1_stem_2", 0, 0, {}]]]}, {"name": "adjust_bn_stem_2", "class_name": "BatchNormalization", "config": {"name": "adjust_bn_stem_2", "trainable": true, "axis": -1, "momentum": 0.9997, "epsilon": 0.001, "center": true, "scale": true, "beta_initializer": {"class_name": "Zeros", "config": {}}, "gamma_initializer": {"class_name": "Ones", "config": {}}, "moving_mean_initializer": {"class_name": "Zeros", "config": {}}, "moving_variance_initializer": {"class_name": "Ones", "config": {}}, "beta_regularizer": null, "gamma_regularizer": null, "beta_constraint": null, "gamma_constraint": null}, "inbound_nodes": [[["concatenate_5", 0, 0, {}]]]}, {"name": "activation_273", "class_name": "Activation", "config": {"name": "activation_273", "trainable": true, "activation": "relu"}, "inbound_nodes": [[["reduction_bn_1_stem_2", 0, 0, {}]]]}, {"name": "activation_275", "class_name": "Activation", "config": {"name": "activation_275", "trainable": true, "activation": "relu"}, "inbound_nodes": [[["adjust_bn_stem_2", 0, 0, {}]]]}, {"name": "separable_conv_1_pad_reduction_left1_stem_2", "class_name": "ZeroPadding2D", "config": {"name": "separable_conv_1_pad_reduction_left1_stem_2", "trainable": true, "padding": [[1, 2], [1, 2]], "data_format": "channels_last"}, "inbound_nodes": [[["activation_273", 0, 0, {}]]]}, {"name": "separable_conv_1_pad_reduction_right1_stem_2", "class_name": "ZeroPadding2D", "config": {"name": "separable_conv_1_pad_reduction_right1_stem_2", "trainable": true, "padding": [[2, 3], [2, 3]], "data_format": "channels_last"}, "inbound_nodes": [[["activation_275", 0, 0, {}]]]}, {"name": "separable_conv_1_reduction_left1_stem_2", "class_name": "SeparableConv2D", "config": {"name": "separable_conv_1_reduction_left1_stem_2", "trainable": true, "filters": 22, "kernel_size": [5, 5], "strides": [2, 2], "padding": "valid", "data_format": "channels_last", "dilation_rate": [1, 1], "activation": "linear", "use_bias": false, "bias_initializer": {"class_name": "Zeros", "config": {}}, "bias_regularizer": null, "activity_regularizer": null, "bias_constraint": null, "depth_multiplier": 1, "depthwise_initializer": {"class_name": "VarianceScaling", "config": {"scale": 1.0, "mode": "fan_avg", "distribution": "uniform", "seed": null}}, "pointwise_initializer": {"class_name": "VarianceScaling", "config": {"scale": 1.0, "mode": "fan_avg", "distribution": "uniform", "seed": null}}, "depthwise_regularizer": null, "pointwise_regularizer": null, "depthwise_constraint": null, "pointwise_constraint": null}, "inbound_nodes": [[["separable_conv_1_pad_reduction_left1_stem_2", 0, 0, {}]]]}, {"name": "separable_conv_1_reduction_right1_stem_2", "class_name": "SeparableConv2D", "config": {"name": "separable_conv_1_reduction_right1_stem_2", "trainable": true, "filters": 22, "kernel_size": [7, 7], "strides": [2, 2], "padding": "valid", "data_format": "channels_last", "dilation_rate": [1, 1], "activation": "linear", "use_bias": false, "bias_initializer": {"class_name": "Zeros", "config": {}}, "bias_regularizer": null, "activity_regularizer": null, "bias_constraint": null, "depth_multiplier": 1, "depthwise_initializer": {"class_name": "VarianceScaling", "config": {"scale": 1.0, "mode": "fan_avg", "distribution": "uniform", "seed": null}}, "pointwise_initializer": {"class_name": "VarianceScaling", "config": {"scale": 1.0, "mode": "fan_avg", "distribution": "uniform", "seed": null}}, "depthwise_regularizer": null, "pointwise_regularizer": null, "depthwise_constraint": null, "pointwise_constraint": null}, "inbound_nodes": [[["separable_conv_1_pad_reduction_right1_stem_2", 0, 0, {}]]]}, {"name": "separable_conv_1_bn_reduction_left1_stem_2", "class_name": "BatchNormalization", "config": {"name": "separable_conv_1_bn_reduction_left1_stem_2", "trainable": true, "axis": -1, "momentum": 0.9997, "epsilon": 0.001, "center": true, "scale": true, "beta_initializer": {"class_name": "Zeros", "config": {}}, "gamma_initializer": {"class_name": "Ones", "config": {}}, "moving_mean_initializer": {"class_name": "Zeros", "config": {}}, "moving_variance_initializer": {"class_name": "Ones", "config": {}}, "beta_regularizer": null, "gamma_regularizer": null, "beta_constraint": null, "gamma_constraint": null}, "inbound_nodes": [[["separable_conv_1_reduction_left1_stem_2", 0, 0, {}]]]}, {"name": "separable_conv_1_bn_reduction_right1_stem_2", "class_name": "BatchNormalization", "config": {"name": "separable_conv_1_bn_reduction_right1_stem_2", "trainable": true, "axis": -1, "momentum": 0.9997, "epsilon": 0.001, "center": true, "scale": true, "beta_initializer": {"class_name": "Zeros", "config": {}}, "gamma_initializer": {"class_name": "Ones", "config": {}}, "moving_mean_initializer": {"class_name": "Zeros", "config": {}}, "moving_variance_initializer": {"class_name": "Ones", "config": {}}, "beta_regularizer": null, "gamma_regularizer": null, "beta_constraint": null, "gamma_constraint": null}, "inbound_nodes": [[["separable_conv_1_reduction_right1_stem_2", 0, 0, {}]]]}, {"name": "activation_274", "class_name": "Activation", "config": {"name": "activation_274", "trainable": true, "activation": "relu"}, "inbound_nodes": [[["separable_conv_1_bn_reduction_left1_stem_2", 0, 0, {}]]]}, {"name": "activation_276", "class_name": "Activation", "config": {"name": "activation_276", "trainable": true, "activation": "relu"}, "inbound_nodes": [[["separable_conv_1_bn_reduction_right1_stem_2", 0, 0, {}]]]}, {"name": "separable_conv_2_reduction_left1_stem_2", "class_name": "SeparableConv2D", "config": {"name": "separable_conv_2_reduction_left1_stem_2", "trainable": true, "filters": 22, "kernel_size": [5, 5], "strides": [1, 1], "padding": "same", "data_format": "channels_last", "dilation_rate": [1, 1], "activation": "linear", "use_bias": false, "bias_initializer": {"class_name": "Zeros", "config": {}}, "bias_regularizer": null, "activity_regularizer": null, "bias_constraint": null, "depth_multiplier": 1, "depthwise_initializer": {"class_name": "VarianceScaling", "config": {"scale": 1.0, "mode": "fan_avg", "distribution": "uniform", "seed": null}}, "pointwise_initializer": {"class_name": "VarianceScaling", "config": {"scale": 1.0, "mode": "fan_avg", "distribution": "uniform", "seed": null}}, "depthwise_regularizer": null, "pointwise_regularizer": null, "depthwise_constraint": null, "pointwise_constraint": null}, "inbound_nodes": [[["activation_274", 0, 0, {}]]]}, {"name": "separable_conv_2_reduction_right1_stem_2", "class_name": "SeparableConv2D", "config": {"name": "separable_conv_2_reduction_right1_stem_2", "trainable": true, "filters": 22, "kernel_size": [7, 7], "strides": [1, 1], "padding": "same", "data_format": "channels_last", "dilation_rate": [1, 1], "activation": "linear", "use_bias": false, "bias_initializer": {"class_name": "Zeros", "config": {}}, "bias_regularizer": null, "activity_regularizer": null, "bias_constraint": null, "depth_multiplier": 1, "depthwise_initializer": {"class_name": "VarianceScaling", "config": {"scale": 1.0, "mode": "fan_avg", "distribution": "uniform", "seed": null}}, "pointwise_initializer": {"class_name": "VarianceScaling", "config": {"scale": 1.0, "mode": "fan_avg", "distribution": "uniform", "seed": null}}, "depthwise_regularizer": null, "pointwise_regularizer": null, "depthwise_constraint": null, "pointwise_constraint": null}, "inbound_nodes": [[["activation_276", 0, 0, {}]]]}, {"name": "activation_277", "class_name": "Activation", "config": {"name": "activation_277", "trainable": true, "activation": "relu"}, "inbound_nodes": [[["adjust_bn_stem_2", 0, 0, {}]]]}, {"name": "separable_conv_2_bn_reduction_left1_stem_2", "class_name": "BatchNormalization", "config": {"name": "separable_conv_2_bn_reduction_left1_stem_2", "trainable": true, "axis": -1, "momentum": 0.9997, "epsilon": 0.001, "center": true, "scale": true, "beta_initializer": {"class_name": "Zeros", "config": {}}, "gamma_initializer": {"class_name": "Ones", "config": {}}, "moving_mean_initializer": {"class_name": "Zeros", "config": {}}, "moving_variance_initializer": {"class_name": "Ones", "config": {}}, "beta_regularizer": null, "gamma_regularizer": null, "beta_constraint": null, "gamma_constraint": null}, "inbound_nodes": [[["separable_conv_2_reduction_left1_stem_2", 0, 0, {}]]]}, {"name": "separable_conv_2_bn_reduction_right1_stem_2", "class_name": "BatchNormalization", "config": {"name": "separable_conv_2_bn_reduction_right1_stem_2", "trainable": true, "axis": -1, "momentum": 0.9997, "epsilon": 0.001, "center": true, "scale": true, "beta_initializer": {"class_name": "Zeros", "config": {}}, "gamma_initializer": {"class_name": "Ones", "config": {}}, "moving_mean_initializer": {"class_name": "Zeros", "config": {}}, "moving_variance_initializer": {"class_name": "Ones", "config": {}}, "beta_regularizer": null, "gamma_regularizer": null, "beta_constraint": null, "gamma_constraint": null}, "inbound_nodes": [[["separable_conv_2_reduction_right1_stem_2", 0, 0, {}]]]}, {"name": "separable_conv_1_pad_reduction_right2_stem_2", "class_name": "ZeroPadding2D", "config": {"name": "separable_conv_1_pad_reduction_right2_stem_2", "trainable": true, "padding": [[2, 3], [2, 3]], "data_format": "channels_last"}, "inbound_nodes": [[["activation_277", 0, 0, {}]]]}, {"name": "activation_279", "class_name": "Activation", "config": {"name": "activation_279", "trainable": true, "activation": "relu"}, "inbound_nodes": [[["adjust_bn_stem_2", 0, 0, {}]]]}, {"name": "reduction_add_1_stem_2", "class_name": "Add", "config": {"name": "reduction_add_1_stem_2", "trainable": true}, "inbound_nodes": [[["separable_conv_2_bn_reduction_left1_stem_2", 0, 0, {}], ["separable_conv_2_bn_reduction_right1_stem_2", 0, 0, {}]]]}, {"name": "separable_conv_1_reduction_right2_stem_2", "class_name": "SeparableConv2D", "config": {"name": "separable_conv_1_reduction_right2_stem_2", "trainable": true, "filters": 22, "kernel_size": [7, 7], "strides": [2, 2], "padding": "valid", "data_format": "channels_last", "dilation_rate": [1, 1], "activation": "linear", "use_bias": false, "bias_initializer": {"class_name": "Zeros", "config": {}}, "bias_regularizer": null, "activity_regularizer": null, "bias_constraint": null, "depth_multiplier": 1, "depthwise_initializer": {"class_name": "VarianceScaling", "config": {"scale": 1.0, "mode": "fan_avg", "distribution": "uniform", "seed": null}}, "pointwise_initializer": {"class_name": "VarianceScaling", "config": {"scale": 1.0, "mode": "fan_avg", "distribution": "uniform", "seed": null}}, "depthwise_regularizer": null, "pointwise_regularizer": null, "depthwise_constraint": null, "pointwise_constraint": null}, "inbound_nodes": [[["separable_conv_1_pad_reduction_right2_stem_2", 0, 0, {}]]]}, {"name": "separable_conv_1_pad_reduction_right3_stem_2", "class_name": "ZeroPadding2D", "config": {"name": "separable_conv_1_pad_reduction_right3_stem_2", "trainable": true, "padding": [[1, 2], [1, 2]], "data_format": "channels_last"}, "inbound_nodes": [[["activation_279", 0, 0, {}]]]}, {"name": "activation_281", "class_name": "Activation", "config": {"name": "activation_281", "trainable": true, "activation": "relu"}, "inbound_nodes": [[["reduction_add_1_stem_2", 0, 0, {}]]]}, {"name": "separable_conv_1_bn_reduction_right2_stem_2", "class_name": "BatchNormalization", "config": {"name": "separable_conv_1_bn_reduction_right2_stem_2", "trainable": true, "axis": -1, "momentum": 0.9997, "epsilon": 0.001, "center": true, "scale": true, "beta_initializer": {"class_name": "Zeros", "config": {}}, "gamma_initializer": {"class_name": "Ones", "config": {}}, "moving_mean_initializer": {"class_name": "Zeros", "config": {}}, "moving_variance_initializer": {"class_name": "Ones", "config": {}}, "beta_regularizer": null, "gamma_regularizer": null, "beta_constraint": null, "gamma_constraint": null}, "inbound_nodes": [[["separable_conv_1_reduction_right2_stem_2", 0, 0, {}]]]}, {"name": "separable_conv_1_reduction_right3_stem_2", "class_name": "SeparableConv2D", "config": {"name": "separable_conv_1_reduction_right3_stem_2", "trainable": true, "filters": 22, "kernel_size": [5, 5], "strides": [2, 2], "padding": "valid", "data_format": "channels_last", "dilation_rate": [1, 1], "activation": "linear", "use_bias": false, "bias_initializer": {"class_name": "Zeros", "config": {}}, "bias_regularizer": null, "activity_regularizer": null, "bias_constraint": null, "depth_multiplier": 1, "depthwise_initializer": {"class_name": "VarianceScaling", "config": {"scale": 1.0, "mode": "fan_avg", "distribution": "uniform", "seed": null}}, "pointwise_initializer": {"class_name": "VarianceScaling", "config": {"scale": 1.0, "mode": "fan_avg", "distribution": "uniform", "seed": null}}, "depthwise_regularizer": null, "pointwise_regularizer": null, "depthwise_constraint": null, "pointwise_constraint": null}, "inbound_nodes": [[["separable_conv_1_pad_reduction_right3_stem_2", 0, 0, {}]]]}, {"name": "separable_conv_1_reduction_left4_stem_2", "class_name": "SeparableConv2D", "config": {"name": "separable_conv_1_reduction_left4_stem_2", "trainable": true, "filters": 22, "kernel_size": [3, 3], "strides": [1, 1], "padding": "same", "data_format": "channels_last", "dilation_rate": [1, 1], "activation": "linear", "use_bias": false, "bias_initializer": {"class_name": "Zeros", "config": {}}, "bias_regularizer": null, "activity_regularizer": null, "bias_constraint": null, "depth_multiplier": 1, "depthwise_initializer": {"class_name": "VarianceScaling", "config": {"scale": 1.0, "mode": "fan_avg", "distribution": "uniform", "seed": null}}, "pointwise_initializer": {"class_name": "VarianceScaling", "config": {"scale": 1.0, "mode": "fan_avg", "distribution": "uniform", "seed": null}}, "depthwise_regularizer": null, "pointwise_regularizer": null, "depthwise_constraint": null, "pointwise_constraint": null}, "inbound_nodes": [[["activation_281", 0, 0, {}]]]}, {"name": "activation_278", "class_name": "Activation", "config": {"name": "activation_278", "trainable": true, "activation": "relu"}, "inbound_nodes": [[["separable_conv_1_bn_reduction_right2_stem_2", 0, 0, {}]]]}, {"name": "separable_conv_1_bn_reduction_right3_stem_2", "class_name": "BatchNormalization", "config": {"name": "separable_conv_1_bn_reduction_right3_stem_2", "trainable": true, "axis": -1, "momentum": 0.9997, "epsilon": 0.001, "center": true, "scale": true, "beta_initializer": {"class_name": "Zeros", "config": {}}, "gamma_initializer": {"class_name": "Ones", "config": {}}, "moving_mean_initializer": {"class_name": "Zeros", "config": {}}, "moving_variance_initializer": {"class_name": "Ones", "config": {}}, "beta_regularizer": null, "gamma_regularizer": null, "beta_constraint": null, "gamma_constraint": null}, "inbound_nodes": [[["separable_conv_1_reduction_right3_stem_2", 0, 0, {}]]]}, {"name": "separable_conv_1_bn_reduction_left4_stem_2", "class_name": "BatchNormalization", "config": {"name": "separable_conv_1_bn_reduction_left4_stem_2", "trainable": true, "axis": -1, "momentum": 0.9997, "epsilon": 0.001, "center": true, "scale": true, "beta_initializer": {"class_name": "Zeros", "config": {}}, "gamma_initializer": {"class_name": "Ones", "config": {}}, "moving_mean_initializer": {"class_name": "Zeros", "config": {}}, "moving_variance_initializer": {"class_name": "Ones", "config": {}}, "beta_regularizer": null, "gamma_regularizer": null, "beta_constraint": null, "gamma_constraint": null}, "inbound_nodes": [[["separable_conv_1_reduction_left4_stem_2", 0, 0, {}]]]}, {"name": "reduction_pad_1_stem_2", "class_name": "ZeroPadding2D", "config": {"name": "reduction_pad_1_stem_2", "trainable": true, "padding": [[0, 1], [0, 1]], "data_format": "channels_last"}, "inbound_nodes": [[["reduction_bn_1_stem_2", 0, 0, {}]]]}, {"name": "separable_conv_2_reduction_right2_stem_2", "class_name": "SeparableConv2D", "config": {"name": "separable_conv_2_reduction_right2_stem_2", "trainable": true, "filters": 22, "kernel_size": [7, 7], "strides": [1, 1], "padding": "same", "data_format": "channels_last", "dilation_rate": [1, 1], "activation": "linear", "use_bias": false, "bias_initializer": {"class_name": "Zeros", "config": {}}, "bias_regularizer": null, "activity_regularizer": null, "bias_constraint": null, "depth_multiplier": 1, "depthwise_initializer": {"class_name": "VarianceScaling", "config": {"scale": 1.0, "mode": "fan_avg", "distribution": "uniform", "seed": null}}, "pointwise_initializer": {"class_name": "VarianceScaling", "config": {"scale": 1.0, "mode": "fan_avg", "distribution": "uniform", "seed": null}}, "depthwise_regularizer": null, "pointwise_regularizer": null, "depthwise_constraint": null, "pointwise_constraint": null}, "inbound_nodes": [[["activation_278", 0, 0, {}]]]}, {"name": "activation_280", "class_name": "Activation", "config": {"name": "activation_280", "trainable": true, "activation": "relu"}, "inbound_nodes": [[["separable_conv_1_bn_reduction_right3_stem_2", 0, 0, {}]]]}, {"name": "activation_282", "class_name": "Activation", "config": {"name": "activation_282", "trainable": true, "activation": "relu"}, "inbound_nodes": [[["separable_conv_1_bn_reduction_left4_stem_2", 0, 0, {}]]]}, {"name": "reduction_left2_stem_2", "class_name": "MaxPooling2D", "config": {"name": "reduction_left2_stem_2", "trainable": true, "pool_size": [3, 3], "padding": "valid", "strides": [2, 2], "data_format": "channels_last"}, "inbound_nodes": [[["reduction_pad_1_stem_2", 0, 0, {}]]]}, {"name": "separable_conv_2_bn_reduction_right2_stem_2", "class_name": "BatchNormalization", "config": {"name": "separable_conv_2_bn_reduction_right2_stem_2", "trainable": true, "axis": -1, "momentum": 0.9997, "epsilon": 0.001, "center": true, "scale": true, "beta_initializer": {"class_name": "Zeros", "config": {}}, "gamma_initializer": {"class_name": "Ones", "config": {}}, "moving_mean_initializer": {"class_name": "Zeros", "config": {}}, "moving_variance_initializer": {"class_name": "Ones", "config": {}}, "beta_regularizer": null, "gamma_regularizer": null, "beta_constraint": null, "gamma_constraint": null}, "inbound_nodes": [[["separable_conv_2_reduction_right2_stem_2", 0, 0, {}]]]}, {"name": "separable_conv_2_reduction_right3_stem_2", "class_name": "SeparableConv2D", "config": {"name": "separable_conv_2_reduction_right3_stem_2", "trainable": true, "filters": 22, "kernel_size": [5, 5], "strides": [1, 1], "padding": "same", "data_format": "channels_last", "dilation_rate": [1, 1], "activation": "linear", "use_bias": false, "bias_initializer": {"class_name": "Zeros", "config": {}}, "bias_regularizer": null, "activity_regularizer": null, "bias_constraint": null, "depth_multiplier": 1, "depthwise_initializer": {"class_name": "VarianceScaling", "config": {"scale": 1.0, "mode": "fan_avg", "distribution": "uniform", "seed": null}}, "pointwise_initializer": {"class_name": "VarianceScaling", "config": {"scale": 1.0, "mode": "fan_avg", "distribution": "uniform", "seed": null}}, "depthwise_regularizer": null, "pointwise_regularizer": null, "depthwise_constraint": null, "pointwise_constraint": null}, "inbound_nodes": [[["activation_280", 0, 0, {}]]]}, {"name": "separable_conv_2_reduction_left4_stem_2", "class_name": "SeparableConv2D", "config": {"name": "separable_conv_2_reduction_left4_stem_2", "trainable": true, "filters": 22, "kernel_size": [3, 3], "strides": [1, 1], "padding": "same", "data_format": "channels_last", "dilation_rate": [1, 1], "activation": "linear", "use_bias": false, "bias_initializer": {"class_name": "Zeros", "config": {}}, "bias_regularizer": null, "activity_regularizer": null, "bias_constraint": null, "depth_multiplier": 1, "depthwise_initializer": {"class_name": "VarianceScaling", "config": {"scale": 1.0, "mode": "fan_avg", "distribution": "uniform", "seed": null}}, "pointwise_initializer": {"class_name": "VarianceScaling", "config": {"scale": 1.0, "mode": "fan_avg", "distribution": "uniform", "seed": null}}, "depthwise_regularizer": null, "pointwise_regularizer": null, "depthwise_constraint": null, "pointwise_constraint": null}, "inbound_nodes": [[["activation_282", 0, 0, {}]]]}, {"name": "adjust_relu_1_0", "class_name": "Activation", "config": {"name": "adjust_relu_1_0", "trainable": true, "activation": "relu"}, "inbound_nodes": [[["reduction_concat_stem_1", 0, 0, {}]]]}, {"name": "reduction_add_2_stem_2", "class_name": "Add", "config": {"name": "reduction_add_2_stem_2", "trainable": true}, "inbound_nodes": [[["reduction_left2_stem_2", 0, 0, {}], ["separable_conv_2_bn_reduction_right2_stem_2", 0, 0, {}]]]}, {"name": "reduction_left3_stem_2", "class_name": "AveragePooling2D", "config": {"name": "reduction_left3_stem_2", "trainable": true, "pool_size": [3, 3], "padding": "valid", "strides": [2, 2], "data_format": "channels_last"}, "inbound_nodes": [[["reduction_pad_1_stem_2", 0, 0, {}]]]}, {"name": "separable_conv_2_bn_reduction_right3_stem_2", "class_name": "BatchNormalization", "config": {"name": "separable_conv_2_bn_reduction_right3_stem_2", "trainable": true, "axis": -1, "momentum": 0.9997, "epsilon": 0.001, "center": true, "scale": true, "beta_initializer": {"class_name": "Zeros", "config": {}}, "gamma_initializer": {"class_name": "Ones", "config": {}}, "moving_mean_initializer": {"class_name": "Zeros", "config": {}}, "moving_variance_initializer": {"class_name": "Ones", "config": {}}, "beta_regularizer": null, "gamma_regularizer": null, "beta_constraint": null, "gamma_constraint": null}, "inbound_nodes": [[["separable_conv_2_reduction_right3_stem_2", 0, 0, {}]]]}, {"name": "reduction_left4_stem_2", "class_name": "AveragePooling2D", "config": {"name": "reduction_left4_stem_2", "trainable": true, "pool_size": [3, 3], "padding": "same", "strides": [1, 1], "data_format": "channels_last"}, "inbound_nodes": [[["reduction_add_1_stem_2", 0, 0, {}]]]}, {"name": "separable_conv_2_bn_reduction_left4_stem_2", "class_name": "BatchNormalization", "config": {"name": "separable_conv_2_bn_reduction_left4_stem_2", "trainable": true, "axis": -1, "momentum": 0.9997, "epsilon": 0.001, "center": true, "scale": true, "beta_initializer": {"class_name": "Zeros", "config": {}}, "gamma_initializer": {"class_name": "Ones", "config": {}}, "moving_mean_initializer": {"class_name": "Zeros", "config": {}}, "moving_variance_initializer": {"class_name": "Ones", "config": {}}, "beta_regularizer": null, "gamma_regularizer": null, "beta_constraint": null, "gamma_constraint": null}, "inbound_nodes": [[["separable_conv_2_reduction_left4_stem_2", 0, 0, {}]]]}, {"name": "reduction_right5_stem_2", "class_name": "MaxPooling2D", "config": {"name": "reduction_right5_stem_2", "trainable": true, "pool_size": [3, 3], "padding": "valid", "strides": [2, 2], "data_format": "channels_last"}, "inbound_nodes": [[["reduction_pad_1_stem_2", 0, 0, {}]]]}, {"name": "zero_padding2d_6", "class_name": "ZeroPadding2D", "config": {"name": "zero_padding2d_6", "trainable": true, "padding": [[0, 1], [0, 1]], "data_format": "channels_last"}, "inbound_nodes": [[["adjust_relu_1_0", 0, 0, {}]]]}, {"name": "reduction_add3_stem_2", "class_name": "Add", "config": {"name": "reduction_add3_stem_2", "trainable": true}, "inbound_nodes": [[["reduction_left3_stem_2", 0, 0, {}], ["separable_conv_2_bn_reduction_right3_stem_2", 0, 0, {}]]]}, {"name": "add_6", "class_name": "Add", "config": {"name": "add_6", "trainable": true}, "inbound_nodes": [[["reduction_add_2_stem_2", 0, 0, {}], ["reduction_left4_stem_2", 0, 0, {}]]]}, {"name": "reduction_add4_stem_2", "class_name": "Add", "config": {"name": "reduction_add4_stem_2", "trainable": true}, "inbound_nodes": [[["separable_conv_2_bn_reduction_left4_stem_2", 0, 0, {}], ["reduction_right5_stem_2", 0, 0, {}]]]}, {"name": "cropping2d_6", "class_name": "Cropping2D", "config": {"name": "cropping2d_6", "trainable": true, "cropping": [[1, 0], [1, 0]], "data_format": "channels_last"}, "inbound_nodes": [[["zero_padding2d_6", 0, 0, {}]]]}, {"name": "reduction_concat_stem_2", "class_name": "Concatenate", "config": {"name": "reduction_concat_stem_2", "trainable": true, "axis": -1}, "inbound_nodes": [[["reduction_add_2_stem_2", 0, 0, {}], ["reduction_add3_stem_2", 0, 0, {}], ["add_6", 0, 0, {}], ["reduction_add4_stem_2", 0, 0, {}]]]}, {"name": "adjust_avg_pool_1_0", "class_name": "AveragePooling2D", "config": {"name": "adjust_avg_pool_1_0", "trainable": true, "pool_size": [1, 1], "padding": "valid", "strides": [2, 2], "data_format": "channels_last"}, "inbound_nodes": [[["adjust_relu_1_0", 0, 0, {}]]]}, {"name": "adjust_avg_pool_2_0", "class_name": "AveragePooling2D", "config": {"name": "adjust_avg_pool_2_0", "trainable": true, "pool_size": [1, 1], "padding": "valid", "strides": [2, 2], "data_format": "channels_last"}, "inbound_nodes": [[["cropping2d_6", 0, 0, {}]]]}, {"name": "adjust_conv_1_0", "class_name": "Conv2D", "config": {"name": "adjust_conv_1_0", "trainable": true, "filters": 22, "kernel_size": [1, 1], "strides": [1, 1], "padding": "same", "data_format": "channels_last", "dilation_rate": [1, 1], "activation": "linear", "use_bias": false, "kernel_initializer": {"class_name": "VarianceScaling", "config": {"scale": 2.0, "mode": "fan_in", "distribution": "normal", "seed": null}}, "bias_initializer": {"class_name": "Zeros", "config": {}}, "kernel_regularizer": null, "bias_regularizer": null, "activity_regularizer": null, "kernel_constraint": null, "bias_constraint": null}, "inbound_nodes": [[["adjust_avg_pool_1_0", 0, 0, {}]]]}, {"name": "adjust_conv_2_0", "class_name": "Conv2D", "config": {"name": "adjust_conv_2_0", "trainable": true, "filters": 22, "kernel_size": [1, 1], "strides": [1, 1], "padding": "same", "data_format": "channels_last", "dilation_rate": [1, 1], "activation": "linear", "use_bias": false, "kernel_initializer": {"class_name": "VarianceScaling", "config": {"scale": 2.0, "mode": "fan_in", "distribution": "normal", "seed": null}}, "bias_initializer": {"class_name": "Zeros", "config": {}}, "kernel_regularizer": null, "bias_regularizer": null, "activity_regularizer": null, "kernel_constraint": null, "bias_constraint": null}, "inbound_nodes": [[["adjust_avg_pool_2_0", 0, 0, {}]]]}, {"name": "activation_283", "class_name": "Activation", "config": {"name": "activation_283", "trainable": true, "activation": "relu"}, "inbound_nodes": [[["reduction_concat_stem_2", 0, 0, {}]]]}, {"name": "concatenate_6", "class_name": "Concatenate", "config": {"name": "concatenate_6", "trainable": true, "axis": -1}, "inbound_nodes": [[["adjust_conv_1_0", 0, 0, {}], ["adjust_conv_2_0", 0, 0, {}]]]}, {"name": "normal_conv_1_0", "class_name": "Conv2D", "config": {"name": "normal_conv_1_0", "trainable": true, "filters": 44, "kernel_size": [1, 1], "strides": [1, 1], "padding": "same", "data_format": "channels_last", "dilation_rate": [1, 1], "activation": "linear", "use_bias": false, "kernel_initializer": {"class_name": "VarianceScaling", "config": {"scale": 2.0, "mode": "fan_in", "distribution": "normal", "seed": null}}, "bias_initializer": {"class_name": "Zeros", "config": {}}, "kernel_regularizer": null, "bias_regularizer": null, "activity_regularizer": null, "kernel_constraint": null, "bias_constraint": null}, "inbound_nodes": [[["activation_283", 0, 0, {}]]]}, {"name": "adjust_bn_0", "class_name": "BatchNormalization", "config": {"name": "adjust_bn_0", "trainable": true, "axis": -1, "momentum": 0.9997, "epsilon": 0.001, "center": true, "scale": true, "beta_initializer": {"class_name": "Zeros", "config": {}}, "gamma_initializer": {"class_name": "Ones", "config": {}}, "moving_mean_initializer": {"class_name": "Zeros", "config": {}}, "moving_variance_initializer": {"class_name": "Ones", "config": {}}, "beta_regularizer": null, "gamma_regularizer": null, "beta_constraint": null, "gamma_constraint": null}, "inbound_nodes": [[["concatenate_6", 0, 0, {}]]]}, {"name": "normal_bn_1_0", "class_name": "BatchNormalization", "config": {"name": "normal_bn_1_0", "trainable": true, "axis": -1, "momentum": 0.9997, "epsilon": 0.001, "center": true, "scale": true, "beta_initializer": {"class_name": "Zeros", "config": {}}, "gamma_initializer": {"class_name": "Ones", "config": {}}, "moving_mean_initializer": {"class_name": "Zeros", "config": {}}, "moving_variance_initializer": {"class_name": "Ones", "config": {}}, "beta_regularizer": null, "gamma_regularizer": null, "beta_constraint": null, "gamma_constraint": null}, "inbound_nodes": [[["normal_conv_1_0", 0, 0, {}]]]}, {"name": "activation_284", "class_name": "Activation", "config": {"name": "activation_284", "trainable": true, "activation": "relu"}, "inbound_nodes": [[["normal_bn_1_0", 0, 0, {}]]]}, {"name": "activation_286", "class_name": "Activation", "config": {"name": "activation_286", "trainable": true, "activation": "relu"}, "inbound_nodes": [[["adjust_bn_0", 0, 0, {}]]]}, {"name": "activation_288", "class_name": "Activation", "config": {"name": "activation_288", "trainable": true, "activation": "relu"}, "inbound_nodes": [[["adjust_bn_0", 0, 0, {}]]]}, {"name": "activation_290", "class_name": "Activation", "config": {"name": "activation_290", "trainable": true, "activation": "relu"}, "inbound_nodes": [[["adjust_bn_0", 0, 0, {}]]]}, {"name": "activation_292", "class_name": "Activation", "config": {"name": "activation_292", "trainable": true, "activation": "relu"}, "inbound_nodes": [[["normal_bn_1_0", 0, 0, {}]]]}, {"name": "separable_conv_1_normal_left1_0", "class_name": "SeparableConv2D", "config": {"name": "separable_conv_1_normal_left1_0", "trainable": true, "filters": 44, "kernel_size": [5, 5], "strides": [1, 1], "padding": "same", "data_format": "channels_last", "dilation_rate": [1, 1], "activation": "linear", "use_bias": false, "bias_initializer": {"class_name": "Zeros", "config": {}}, "bias_regularizer": null, "activity_regularizer": null, "bias_constraint": null, "depth_multiplier": 1, "depthwise_initializer": {"class_name": "VarianceScaling", "config": {"scale": 1.0, "mode": "fan_avg", "distribution": "uniform", "seed": null}}, "pointwise_initializer": {"class_name": "VarianceScaling", "config": {"scale": 1.0, "mode": "fan_avg", "distribution": "uniform", "seed": null}}, "depthwise_regularizer": null, "pointwise_regularizer": null, "depthwise_constraint": null, "pointwise_constraint": null}, "inbound_nodes": [[["activation_284", 0, 0, {}]]]}, {"name": "separable_conv_1_normal_right1_0", "class_name": "SeparableConv2D", "config": {"name": "separable_conv_1_normal_right1_0", "trainable": true, "filters": 44, "kernel_size": [3, 3], "strides": [1, 1], "padding": "same", "data_format": "channels_last", "dilation_rate": [1, 1], "activation": "linear", "use_bias": false, "bias_initializer": {"class_name": "Zeros", "config": {}}, "bias_regularizer": null, "activity_regularizer": null, "bias_constraint": null, "depth_multiplier": 1, "depthwise_initializer": {"class_name": "VarianceScaling", "config": {"scale": 1.0, "mode": "fan_avg", "distribution": "uniform", "seed": null}}, "pointwise_initializer": {"class_name": "VarianceScaling", "config": {"scale": 1.0, "mode": "fan_avg", "distribution": "uniform", "seed": null}}, "depthwise_regularizer": null, "pointwise_regularizer": null, "depthwise_constraint": null, "pointwise_constraint": null}, "inbound_nodes": [[["activation_286", 0, 0, {}]]]}, {"name": "separable_conv_1_normal_left2_0", "class_name": "SeparableConv2D", "config": {"name": "separable_conv_1_normal_left2_0", "trainable": true, "filters": 44, "kernel_size": [5, 5], "strides": [1, 1], "padding": "same", "data_format": "channels_last", "dilation_rate": [1, 1], "activation": "linear", "use_bias": false, "bias_initializer": {"class_name": "Zeros", "config": {}}, "bias_regularizer": null, "activity_regularizer": null, "bias_constraint": null, "depth_multiplier": 1, "depthwise_initializer": {"class_name": "VarianceScaling", "config": {"scale": 1.0, "mode": "fan_avg", "distribution": "uniform", "seed": null}}, "pointwise_initializer": {"class_name": "VarianceScaling", "config": {"scale": 1.0, "mode": "fan_avg", "distribution": "uniform", "seed": null}}, "depthwise_regularizer": null, "pointwise_regularizer": null, "depthwise_constraint": null, "pointwise_constraint": null}, "inbound_nodes": [[["activation_288", 0, 0, {}]]]}, {"name": "separable_conv_1_normal_right2_0", "class_name": "SeparableConv2D", "config": {"name": "separable_conv_1_normal_right2_0", "trainable": true, "filters": 44, "kernel_size": [3, 3], "strides": [1, 1], "padding": "same", "data_format": "channels_last", "dilation_rate": [1, 1], "activation": "linear", "use_bias": false, "bias_initializer": {"class_name": "Zeros", "config": {}}, "bias_regularizer": null, "activity_regularizer": null, "bias_constraint": null, "depth_multiplier": 1, "depthwise_initializer": {"class_name": "VarianceScaling", "config": {"scale": 1.0, "mode": "fan_avg", "distribution": "uniform", "seed": null}}, "pointwise_initializer": {"class_name": "VarianceScaling", "config": {"scale": 1.0, "mode": "fan_avg", "distribution": "uniform", "seed": null}}, "depthwise_regularizer": null, "pointwise_regularizer": null, "depthwise_constraint": null, "pointwise_constraint": null}, "inbound_nodes": [[["activation_290", 0, 0, {}]]]}, {"name": "separable_conv_1_normal_left5_0", "class_name": "SeparableConv2D", "config": {"name": "separable_conv_1_normal_left5_0", "trainable": true, "filters": 44, "kernel_size": [3, 3], "strides": [1, 1], "padding": "same", "data_format": "channels_last", "dilation_rate": [1, 1], "activation": "linear", "use_bias": false, "bias_initializer": {"class_name": "Zeros", "config": {}}, "bias_regularizer": null, "activity_regularizer": null, "bias_constraint": null, "depth_multiplier": 1, "depthwise_initializer": {"class_name": "VarianceScaling", "config": {"scale": 1.0, "mode": "fan_avg", "distribution": "uniform", "seed": null}}, "pointwise_initializer": {"class_name": "VarianceScaling", "config": {"scale": 1.0, "mode": "fan_avg", "distribution": "uniform", "seed": null}}, "depthwise_regularizer": null, "pointwise_regularizer": null, "depthwise_constraint": null, "pointwise_constraint": null}, "inbound_nodes": [[["activation_292", 0, 0, {}]]]}, {"name": "separable_conv_1_bn_normal_left1_0", "class_name": "BatchNormalization", "config": {"name": "separable_conv_1_bn_normal_left1_0", "trainable": true, "axis": -1, "momentum": 0.9997, "epsilon": 0.001, "center": true, "scale": true, "beta_initializer": {"class_name": "Zeros", "config": {}}, "gamma_initializer": {"class_name": "Ones", "config": {}}, "moving_mean_initializer": {"class_name": "Zeros", "config": {}}, "moving_variance_initializer": {"class_name": "Ones", "config": {}}, "beta_regularizer": null, "gamma_regularizer": null, "beta_constraint": null, "gamma_constraint": null}, "inbound_nodes": [[["separable_conv_1_normal_left1_0", 0, 0, {}]]]}, {"name": "separable_conv_1_bn_normal_right1_0", "class_name": "BatchNormalization", "config": {"name": "separable_conv_1_bn_normal_right1_0", "trainable": true, "axis": -1, "momentum": 0.9997, "epsilon": 0.001, "center": true, "scale": true, "beta_initializer": {"class_name": "Zeros", "config": {}}, "gamma_initializer": {"class_name": "Ones", "config": {}}, "moving_mean_initializer": {"class_name": "Zeros", "config": {}}, "moving_variance_initializer": {"class_name": "Ones", "config": {}}, "beta_regularizer": null, "gamma_regularizer": null, "beta_constraint": null, "gamma_constraint": null}, "inbound_nodes": [[["separable_conv_1_normal_right1_0", 0, 0, {}]]]}, {"name": "separable_conv_1_bn_normal_left2_0", "class_name": "BatchNormalization", "config": {"name": "separable_conv_1_bn_normal_left2_0", "trainable": true, "axis": -1, "momentum": 0.9997, "epsilon": 0.001, "center": true, "scale": true, "beta_initializer": {"class_name": "Zeros", "config": {}}, "gamma_initializer": {"class_name": "Ones", "config": {}}, "moving_mean_initializer": {"class_name": "Zeros", "config": {}}, "moving_variance_initializer": {"class_name": "Ones", "config": {}}, "beta_regularizer": null, "gamma_regularizer": null, "beta_constraint": null, "gamma_constraint": null}, "inbound_nodes": [[["separable_conv_1_normal_left2_0", 0, 0, {}]]]}, {"name": "separable_conv_1_bn_normal_right2_0", "class_name": "BatchNormalization", "config": {"name": "separable_conv_1_bn_normal_right2_0", "trainable": true, "axis": -1, "momentum": 0.9997, "epsilon": 0.001, "center": true, "scale": true, "beta_initializer": {"class_name": "Zeros", "config": {}}, "gamma_initializer": {"class_name": "Ones", "config": {}}, "moving_mean_initializer": {"class_name": "Zeros", "config": {}}, "moving_variance_initializer": {"class_name": "Ones", "config": {}}, "beta_regularizer": null, "gamma_regularizer": null, "beta_constraint": null, "gamma_constraint": null}, "inbound_nodes": [[["separable_conv_1_normal_right2_0", 0, 0, {}]]]}, {"name": "separable_conv_1_bn_normal_left5_0", "class_name": "BatchNormalization", "config": {"name": "separable_conv_1_bn_normal_left5_0", "trainable": true, "axis": -1, "momentum": 0.9997, "epsilon": 0.001, "center": true, "scale": true, "beta_initializer": {"class_name": "Zeros", "config": {}}, "gamma_initializer": {"class_name": "Ones", "config": {}}, "moving_mean_initializer": {"class_name": "Zeros", "config": {}}, "moving_variance_initializer": {"class_name": "Ones", "config": {}}, "beta_regularizer": null, "gamma_regularizer": null, "beta_constraint": null, "gamma_constraint": null}, "inbound_nodes": [[["separable_conv_1_normal_left5_0", 0, 0, {}]]]}, {"name": "activation_285", "class_name": "Activation", "config": {"name": "activation_285", "trainable": true, "activation": "relu"}, "inbound_nodes": [[["separable_conv_1_bn_normal_left1_0", 0, 0, {}]]]}, {"name": "activation_287", "class_name": "Activation", "config": {"name": "activation_287", "trainable": true, "activation": "relu"}, "inbound_nodes": [[["separable_conv_1_bn_normal_right1_0", 0, 0, {}]]]}, {"name": "activation_289", "class_name": "Activation", "config": {"name": "activation_289", "trainable": true, "activation": "relu"}, "inbound_nodes": [[["separable_conv_1_bn_normal_left2_0", 0, 0, {}]]]}, {"name": "activation_291", "class_name": "Activation", "config": {"name": "activation_291", "trainable": true, "activation": "relu"}, "inbound_nodes": [[["separable_conv_1_bn_normal_right2_0", 0, 0, {}]]]}, {"name": "activation_293", "class_name": "Activation", "config": {"name": "activation_293", "trainable": true, "activation": "relu"}, "inbound_nodes": [[["separable_conv_1_bn_normal_left5_0", 0, 0, {}]]]}, {"name": "separable_conv_2_normal_left1_0", "class_name": "SeparableConv2D", "config": {"name": "separable_conv_2_normal_left1_0", "trainable": true, "filters": 44, "kernel_size": [5, 5], "strides": [1, 1], "padding": "same", "data_format": "channels_last", "dilation_rate": [1, 1], "activation": "linear", "use_bias": false, "bias_initializer": {"class_name": "Zeros", "config": {}}, "bias_regularizer": null, "activity_regularizer": null, "bias_constraint": null, "depth_multiplier": 1, "depthwise_initializer": {"class_name": "VarianceScaling", "config": {"scale": 1.0, "mode": "fan_avg", "distribution": "uniform", "seed": null}}, "pointwise_initializer": {"class_name": "VarianceScaling", "config": {"scale": 1.0, "mode": "fan_avg", "distribution": "uniform", "seed": null}}, "depthwise_regularizer": null, "pointwise_regularizer": null, "depthwise_constraint": null, "pointwise_constraint": null}, "inbound_nodes": [[["activation_285", 0, 0, {}]]]}, {"name": "separable_conv_2_normal_right1_0", "class_name": "SeparableConv2D", "config": {"name": "separable_conv_2_normal_right1_0", "trainable": true, "filters": 44, "kernel_size": [3, 3], "strides": [1, 1], "padding": "same", "data_format": "channels_last", "dilation_rate": [1, 1], "activation": "linear", "use_bias": false, "bias_initializer": {"class_name": "Zeros", "config": {}}, "bias_regularizer": null, "activity_regularizer": null, "bias_constraint": null, "depth_multiplier": 1, "depthwise_initializer": {"class_name": "VarianceScaling", "config": {"scale": 1.0, "mode": "fan_avg", "distribution": "uniform", "seed": null}}, "pointwise_initializer": {"class_name": "VarianceScaling", "config": {"scale": 1.0, "mode": "fan_avg", "distribution": "uniform", "seed": null}}, "depthwise_regularizer": null, "pointwise_regularizer": null, "depthwise_constraint": null, "pointwise_constraint": null}, "inbound_nodes": [[["activation_287", 0, 0, {}]]]}, {"name": "separable_conv_2_normal_left2_0", "class_name": "SeparableConv2D", "config": {"name": "separable_conv_2_normal_left2_0", "trainable": true, "filters": 44, "kernel_size": [5, 5], "strides": [1, 1], "padding": "same", "data_format": "channels_last", "dilation_rate": [1, 1], "activation": "linear", "use_bias": false, "bias_initializer": {"class_name": "Zeros", "config": {}}, "bias_regularizer": null, "activity_regularizer": null, "bias_constraint": null, "depth_multiplier": 1, "depthwise_initializer": {"class_name": "VarianceScaling", "config": {"scale": 1.0, "mode": "fan_avg", "distribution": "uniform", "seed": null}}, "pointwise_initializer": {"class_name": "VarianceScaling", "config": {"scale": 1.0, "mode": "fan_avg", "distribution": "uniform", "seed": null}}, "depthwise_regularizer": null, "pointwise_regularizer": null, "depthwise_constraint": null, "pointwise_constraint": null}, "inbound_nodes": [[["activation_289", 0, 0, {}]]]}, {"name": "separable_conv_2_normal_right2_0", "class_name": "SeparableConv2D", "config": {"name": "separable_conv_2_normal_right2_0", "trainable": true, "filters": 44, "kernel_size": [3, 3], "strides": [1, 1], "padding": "same", "data_format": "channels_last", "dilation_rate": [1, 1], "activation": "linear", "use_bias": false, "bias_initializer": {"class_name": "Zeros", "config": {}}, "bias_regularizer": null, "activity_regularizer": null, "bias_constraint": null, "depth_multiplier": 1, "depthwise_initializer": {"class_name": "VarianceScaling", "config": {"scale": 1.0, "mode": "fan_avg", "distribution": "uniform", "seed": null}}, "pointwise_initializer": {"class_name": "VarianceScaling", "config": {"scale": 1.0, "mode": "fan_avg", "distribution": "uniform", "seed": null}}, "depthwise_regularizer": null, "pointwise_regularizer": null, "depthwise_constraint": null, "pointwise_constraint": null}, "inbound_nodes": [[["activation_291", 0, 0, {}]]]}, {"name": "separable_conv_2_normal_left5_0", "class_name": "SeparableConv2D", "config": {"name": "separable_conv_2_normal_left5_0", "trainable": true, "filters": 44, "kernel_size": [3, 3], "strides": [1, 1], "padding": "same", "data_format": "channels_last", "dilation_rate": [1, 1], "activation": "linear", "use_bias": false, "bias_initializer": {"class_name": "Zeros", "config": {}}, "bias_regularizer": null, "activity_regularizer": null, "bias_constraint": null, "depth_multiplier": 1, "depthwise_initializer": {"class_name": "VarianceScaling", "config": {"scale": 1.0, "mode": "fan_avg", "distribution": "uniform", "seed": null}}, "pointwise_initializer": {"class_name": "VarianceScaling", "config": {"scale": 1.0, "mode": "fan_avg", "distribution": "uniform", "seed": null}}, "depthwise_regularizer": null, "pointwise_regularizer": null, "depthwise_constraint": null, "pointwise_constraint": null}, "inbound_nodes": [[["activation_293", 0, 0, {}]]]}, {"name": "separable_conv_2_bn_normal_left1_0", "class_name": "BatchNormalization", "config": {"name": "separable_conv_2_bn_normal_left1_0", "trainable": true, "axis": -1, "momentum": 0.9997, "epsilon": 0.001, "center": true, "scale": true, "beta_initializer": {"class_name": "Zeros", "config": {}}, "gamma_initializer": {"class_name": "Ones", "config": {}}, "moving_mean_initializer": {"class_name": "Zeros", "config": {}}, "moving_variance_initializer": {"class_name": "Ones", "config": {}}, "beta_regularizer": null, "gamma_regularizer": null, "beta_constraint": null, "gamma_constraint": null}, "inbound_nodes": [[["separable_conv_2_normal_left1_0", 0, 0, {}]]]}, {"name": "separable_conv_2_bn_normal_right1_0", "class_name": "BatchNormalization", "config": {"name": "separable_conv_2_bn_normal_right1_0", "trainable": true, "axis": -1, "momentum": 0.9997, "epsilon": 0.001, "center": true, "scale": true, "beta_initializer": {"class_name": "Zeros", "config": {}}, "gamma_initializer": {"class_name": "Ones", "config": {}}, "moving_mean_initializer": {"class_name": "Zeros", "config": {}}, "moving_variance_initializer": {"class_name": "Ones", "config": {}}, "beta_regularizer": null, "gamma_regularizer": null, "beta_constraint": null, "gamma_constraint": null}, "inbound_nodes": [[["separable_conv_2_normal_right1_0", 0, 0, {}]]]}, {"name": "separable_conv_2_bn_normal_left2_0", "class_name": "BatchNormalization", "config": {"name": "separable_conv_2_bn_normal_left2_0", "trainable": true, "axis": -1, "momentum": 0.9997, "epsilon": 0.001, "center": true, "scale": true, "beta_initializer": {"class_name": "Zeros", "config": {}}, "gamma_initializer": {"class_name": "Ones", "config": {}}, "moving_mean_initializer": {"class_name": "Zeros", "config": {}}, "moving_variance_initializer": {"class_name": "Ones", "config": {}}, "beta_regularizer": null, "gamma_regularizer": null, "beta_constraint": null, "gamma_constraint": null}, "inbound_nodes": [[["separable_conv_2_normal_left2_0", 0, 0, {}]]]}, {"name": "separable_conv_2_bn_normal_right2_0", "class_name": "BatchNormalization", "config": {"name": "separable_conv_2_bn_normal_right2_0", "trainable": true, "axis": -1, "momentum": 0.9997, "epsilon": 0.001, "center": true, "scale": true, "beta_initializer": {"class_name": "Zeros", "config": {}}, "gamma_initializer": {"class_name": "Ones", "config": {}}, "moving_mean_initializer": {"class_name": "Zeros", "config": {}}, "moving_variance_initializer": {"class_name": "Ones", "config": {}}, "beta_regularizer": null, "gamma_regularizer": null, "beta_constraint": null, "gamma_constraint": null}, "inbound_nodes": [[["separable_conv_2_normal_right2_0", 0, 0, {}]]]}, {"name": "normal_left3_0", "class_name": "AveragePooling2D", "config": {"name": "normal_left3_0", "trainable": true, "pool_size": [3, 3], "padding": "same", "strides": [1, 1], "data_format": "channels_last"}, "inbound_nodes": [[["normal_bn_1_0", 0, 0, {}]]]}, {"name": "normal_left4_0", "class_name": "AveragePooling2D", "config": {"name": "normal_left4_0", "trainable": true, "pool_size": [3, 3], "padding": "same", "strides": [1, 1], "data_format": "channels_last"}, "inbound_nodes": [[["adjust_bn_0", 0, 0, {}]]]}, {"name": "normal_right4_0", "class_name": "AveragePooling2D", "config": {"name": "normal_right4_0", "trainable": true, "pool_size": [3, 3], "padding": "same", "strides": [1, 1], "data_format": "channels_last"}, "inbound_nodes": [[["adjust_bn_0", 0, 0, {}]]]}, {"name": "separable_conv_2_bn_normal_left5_0", "class_name": "BatchNormalization", "config": {"name": "separable_conv_2_bn_normal_left5_0", "trainable": true, "axis": -1, "momentum": 0.9997, "epsilon": 0.001, "center": true, "scale": true, "beta_initializer": {"class_name": "Zeros", "config": {}}, "gamma_initializer": {"class_name": "Ones", "config": {}}, "moving_mean_initializer": {"class_name": "Zeros", "config": {}}, "moving_variance_initializer": {"class_name": "Ones", "config": {}}, "beta_regularizer": null, "gamma_regularizer": null, "beta_constraint": null, "gamma_constraint": null}, "inbound_nodes": [[["separable_conv_2_normal_left5_0", 0, 0, {}]]]}, {"name": "normal_add_1_0", "class_name": "Add", "config": {"name": "normal_add_1_0", "trainable": true}, "inbound_nodes": [[["separable_conv_2_bn_normal_left1_0", 0, 0, {}], ["separable_conv_2_bn_normal_right1_0", 0, 0, {}]]]}, {"name": "normal_add_2_0", "class_name": "Add", "config": {"name": "normal_add_2_0", "trainable": true}, "inbound_nodes": [[["separable_conv_2_bn_normal_left2_0", 0, 0, {}], ["separable_conv_2_bn_normal_right2_0", 0, 0, {}]]]}, {"name": "normal_add_3_0", "class_name": "Add", "config": {"name": "normal_add_3_0", "trainable": true}, "inbound_nodes": [[["normal_left3_0", 0, 0, {}], ["adjust_bn_0", 0, 0, {}]]]}, {"name": "normal_add_4_0", "class_name": "Add", "config": {"name": "normal_add_4_0", "trainable": true}, "inbound_nodes": [[["normal_left4_0", 0, 0, {}], ["normal_right4_0", 0, 0, {}]]]}, {"name": "normal_add_5_0", "class_name": "Add", "config": {"name": "normal_add_5_0", "trainable": true}, "inbound_nodes": [[["separable_conv_2_bn_normal_left5_0", 0, 0, {}], ["normal_bn_1_0", 0, 0, {}]]]}, {"name": "normal_concat_0", "class_name": "Concatenate", "config": {"name": "normal_concat_0", "trainable": true, "axis": -1}, "inbound_nodes": [[["adjust_bn_0", 0, 0, {}], ["normal_add_1_0", 0, 0, {}], ["normal_add_2_0", 0, 0, {}], ["normal_add_3_0", 0, 0, {}], ["normal_add_4_0", 0, 0, {}], ["normal_add_5_0", 0, 0, {}]]]}, {"name": "activation_294", "class_name": "Activation", "config": {"name": "activation_294", "trainable": true, "activation": "relu"}, "inbound_nodes": [[["reduction_concat_stem_2", 0, 0, {}]]]}, {"name": "activation_295", "class_name": "Activation", "config": {"name": "activation_295", "trainable": true, "activation": "relu"}, "inbound_nodes": [[["normal_concat_0", 0, 0, {}]]]}, {"name": "adjust_conv_projection_1", "class_name": "Conv2D", "config": {"name": "adjust_conv_projection_1", "trainable": true, "filters": 44, "kernel_size": [1, 1], "strides": [1, 1], "padding": "same", "data_format": "channels_last", "dilation_rate": [1, 1], "activation": "linear", "use_bias": false, "kernel_initializer": {"class_name": "VarianceScaling", "config": {"scale": 2.0, "mode": "fan_in", "distribution": "normal", "seed": null}}, "bias_initializer": {"class_name": "Zeros", "config": {}}, "kernel_regularizer": null, "bias_regularizer": null, "activity_regularizer": null, "kernel_constraint": null, "bias_constraint": null}, "inbound_nodes": [[["activation_294", 0, 0, {}]]]}, {"name": "normal_conv_1_1", "class_name": "Conv2D", "config": {"name": "normal_conv_1_1", "trainable": true, "filters": 44, "kernel_size": [1, 1], "strides": [1, 1], "padding": "same", "data_format": "channels_last", "dilation_rate": [1, 1], "activation": "linear", "use_bias": false, "kernel_initializer": {"class_name": "VarianceScaling", "config": {"scale": 2.0, "mode": "fan_in", "distribution": "normal", "seed": null}}, "bias_initializer": {"class_name": "Zeros", "config": {}}, "kernel_regularizer": null, "bias_regularizer": null, "activity_regularizer": null, "kernel_constraint": null, "bias_constraint": null}, "inbound_nodes": [[["activation_295", 0, 0, {}]]]}, {"name": "adjust_bn_1", "class_name": "BatchNormalization", "config": {"name": "adjust_bn_1", "trainable": true, "axis": -1, "momentum": 0.9997, "epsilon": 0.001, "center": true, "scale": true, "beta_initializer": {"class_name": "Zeros", "config": {}}, "gamma_initializer": {"class_name": "Ones", "config": {}}, "moving_mean_initializer": {"class_name": "Zeros", "config": {}}, "moving_variance_initializer": {"class_name": "Ones", "config": {}}, "beta_regularizer": null, "gamma_regularizer": null, "beta_constraint": null, "gamma_constraint": null}, "inbound_nodes": [[["adjust_conv_projection_1", 0, 0, {}]]]}, {"name": "normal_bn_1_1", "class_name": "BatchNormalization", "config": {"name": "normal_bn_1_1", "trainable": true, "axis": -1, "momentum": 0.9997, "epsilon": 0.001, "center": true, "scale": true, "beta_initializer": {"class_name": "Zeros", "config": {}}, "gamma_initializer": {"class_name": "Ones", "config": {}}, "moving_mean_initializer": {"class_name": "Zeros", "config": {}}, "moving_variance_initializer": {"class_name": "Ones", "config": {}}, "beta_regularizer": null, "gamma_regularizer": null, "beta_constraint": null, "gamma_constraint": null}, "inbound_nodes": [[["normal_conv_1_1", 0, 0, {}]]]}, {"name": "activation_296", "class_name": "Activation", "config": {"name": "activation_296", "trainable": true, "activation": "relu"}, "inbound_nodes": [[["normal_bn_1_1", 0, 0, {}]]]}, {"name": "activation_298", "class_name": "Activation", "config": {"name": "activation_298", "trainable": true, "activation": "relu"}, "inbound_nodes": [[["adjust_bn_1", 0, 0, {}]]]}, {"name": "activation_300", "class_name": "Activation", "config": {"name": "activation_300", "trainable": true, "activation": "relu"}, "inbound_nodes": [[["adjust_bn_1", 0, 0, {}]]]}, {"name": "activation_302", "class_name": "Activation", "config": {"name": "activation_302", "trainable": true, "activation": "relu"}, "inbound_nodes": [[["adjust_bn_1", 0, 0, {}]]]}, {"name": "activation_304", "class_name": "Activation", "config": {"name": "activation_304", "trainable": true, "activation": "relu"}, "inbound_nodes": [[["normal_bn_1_1", 0, 0, {}]]]}, {"name": "separable_conv_1_normal_left1_1", "class_name": "SeparableConv2D", "config": {"name": "separable_conv_1_normal_left1_1", "trainable": true, "filters": 44, "kernel_size": [5, 5], "strides": [1, 1], "padding": "same", "data_format": "channels_last", "dilation_rate": [1, 1], "activation": "linear", "use_bias": false, "bias_initializer": {"class_name": "Zeros", "config": {}}, "bias_regularizer": null, "activity_regularizer": null, "bias_constraint": null, "depth_multiplier": 1, "depthwise_initializer": {"class_name": "VarianceScaling", "config": {"scale": 1.0, "mode": "fan_avg", "distribution": "uniform", "seed": null}}, "pointwise_initializer": {"class_name": "VarianceScaling", "config": {"scale": 1.0, "mode": "fan_avg", "distribution": "uniform", "seed": null}}, "depthwise_regularizer": null, "pointwise_regularizer": null, "depthwise_constraint": null, "pointwise_constraint": null}, "inbound_nodes": [[["activation_296", 0, 0, {}]]]}, {"name": "separable_conv_1_normal_right1_1", "class_name": "SeparableConv2D", "config": {"name": "separable_conv_1_normal_right1_1", "trainable": true, "filters": 44, "kernel_size": [3, 3], "strides": [1, 1], "padding": "same", "data_format": "channels_last", "dilation_rate": [1, 1], "activation": "linear", "use_bias": false, "bias_initializer": {"class_name": "Zeros", "config": {}}, "bias_regularizer": null, "activity_regularizer": null, "bias_constraint": null, "depth_multiplier": 1, "depthwise_initializer": {"class_name": "VarianceScaling", "config": {"scale": 1.0, "mode": "fan_avg", "distribution": "uniform", "seed": null}}, "pointwise_initializer": {"class_name": "VarianceScaling", "config": {"scale": 1.0, "mode": "fan_avg", "distribution": "uniform", "seed": null}}, "depthwise_regularizer": null, "pointwise_regularizer": null, "depthwise_constraint": null, "pointwise_constraint": null}, "inbound_nodes": [[["activation_298", 0, 0, {}]]]}, {"name": "separable_conv_1_normal_left2_1", "class_name": "SeparableConv2D", "config": {"name": "separable_conv_1_normal_left2_1", "trainable": true, "filters": 44, "kernel_size": [5, 5], "strides": [1, 1], "padding": "same", "data_format": "channels_last", "dilation_rate": [1, 1], "activation": "linear", "use_bias": false, "bias_initializer": {"class_name": "Zeros", "config": {}}, "bias_regularizer": null, "activity_regularizer": null, "bias_constraint": null, "depth_multiplier": 1, "depthwise_initializer": {"class_name": "VarianceScaling", "config": {"scale": 1.0, "mode": "fan_avg", "distribution": "uniform", "seed": null}}, "pointwise_initializer": {"class_name": "VarianceScaling", "config": {"scale": 1.0, "mode": "fan_avg", "distribution": "uniform", "seed": null}}, "depthwise_regularizer": null, "pointwise_regularizer": null, "depthwise_constraint": null, "pointwise_constraint": null}, "inbound_nodes": [[["activation_300", 0, 0, {}]]]}, {"name": "separable_conv_1_normal_right2_1", "class_name": "SeparableConv2D", "config": {"name": "separable_conv_1_normal_right2_1", "trainable": true, "filters": 44, "kernel_size": [3, 3], "strides": [1, 1], "padding": "same", "data_format": "channels_last", "dilation_rate": [1, 1], "activation": "linear", "use_bias": false, "bias_initializer": {"class_name": "Zeros", "config": {}}, "bias_regularizer": null, "activity_regularizer": null, "bias_constraint": null, "depth_multiplier": 1, "depthwise_initializer": {"class_name": "VarianceScaling", "config": {"scale": 1.0, "mode": "fan_avg", "distribution": "uniform", "seed": null}}, "pointwise_initializer": {"class_name": "VarianceScaling", "config": {"scale": 1.0, "mode": "fan_avg", "distribution": "uniform", "seed": null}}, "depthwise_regularizer": null, "pointwise_regularizer": null, "depthwise_constraint": null, "pointwise_constraint": null}, "inbound_nodes": [[["activation_302", 0, 0, {}]]]}, {"name": "separable_conv_1_normal_left5_1", "class_name": "SeparableConv2D", "config": {"name": "separable_conv_1_normal_left5_1", "trainable": true, "filters": 44, "kernel_size": [3, 3], "strides": [1, 1], "padding": "same", "data_format": "channels_last", "dilation_rate": [1, 1], "activation": "linear", "use_bias": false, "bias_initializer": {"class_name": "Zeros", "config": {}}, "bias_regularizer": null, "activity_regularizer": null, "bias_constraint": null, "depth_multiplier": 1, "depthwise_initializer": {"class_name": "VarianceScaling", "config": {"scale": 1.0, "mode": "fan_avg", "distribution": "uniform", "seed": null}}, "pointwise_initializer": {"class_name": "VarianceScaling", "config": {"scale": 1.0, "mode": "fan_avg", "distribution": "uniform", "seed": null}}, "depthwise_regularizer": null, "pointwise_regularizer": null, "depthwise_constraint": null, "pointwise_constraint": null}, "inbound_nodes": [[["activation_304", 0, 0, {}]]]}, {"name": "separable_conv_1_bn_normal_left1_1", "class_name": "BatchNormalization", "config": {"name": "separable_conv_1_bn_normal_left1_1", "trainable": true, "axis": -1, "momentum": 0.9997, "epsilon": 0.001, "center": true, "scale": true, "beta_initializer": {"class_name": "Zeros", "config": {}}, "gamma_initializer": {"class_name": "Ones", "config": {}}, "moving_mean_initializer": {"class_name": "Zeros", "config": {}}, "moving_variance_initializer": {"class_name": "Ones", "config": {}}, "beta_regularizer": null, "gamma_regularizer": null, "beta_constraint": null, "gamma_constraint": null}, "inbound_nodes": [[["separable_conv_1_normal_left1_1", 0, 0, {}]]]}, {"name": "separable_conv_1_bn_normal_right1_1", "class_name": "BatchNormalization", "config": {"name": "separable_conv_1_bn_normal_right1_1", "trainable": true, "axis": -1, "momentum": 0.9997, "epsilon": 0.001, "center": true, "scale": true, "beta_initializer": {"class_name": "Zeros", "config": {}}, "gamma_initializer": {"class_name": "Ones", "config": {}}, "moving_mean_initializer": {"class_name": "Zeros", "config": {}}, "moving_variance_initializer": {"class_name": "Ones", "config": {}}, "beta_regularizer": null, "gamma_regularizer": null, "beta_constraint": null, "gamma_constraint": null}, "inbound_nodes": [[["separable_conv_1_normal_right1_1", 0, 0, {}]]]}, {"name": "separable_conv_1_bn_normal_left2_1", "class_name": "BatchNormalization", "config": {"name": "separable_conv_1_bn_normal_left2_1", "trainable": true, "axis": -1, "momentum": 0.9997, "epsilon": 0.001, "center": true, "scale": true, "beta_initializer": {"class_name": "Zeros", "config": {}}, "gamma_initializer": {"class_name": "Ones", "config": {}}, "moving_mean_initializer": {"class_name": "Zeros", "config": {}}, "moving_variance_initializer": {"class_name": "Ones", "config": {}}, "beta_regularizer": null, "gamma_regularizer": null, "beta_constraint": null, "gamma_constraint": null}, "inbound_nodes": [[["separable_conv_1_normal_left2_1", 0, 0, {}]]]}, {"name": "separable_conv_1_bn_normal_right2_1", "class_name": "BatchNormalization", "config": {"name": "separable_conv_1_bn_normal_right2_1", "trainable": true, "axis": -1, "momentum": 0.9997, "epsilon": 0.001, "center": true, "scale": true, "beta_initializer": {"class_name": "Zeros", "config": {}}, "gamma_initializer": {"class_name": "Ones", "config": {}}, "moving_mean_initializer": {"class_name": "Zeros", "config": {}}, "moving_variance_initializer": {"class_name": "Ones", "config": {}}, "beta_regularizer": null, "gamma_regularizer": null, "beta_constraint": null, "gamma_constraint": null}, "inbound_nodes": [[["separable_conv_1_normal_right2_1", 0, 0, {}]]]}, {"name": "separable_conv_1_bn_normal_left5_1", "class_name": "BatchNormalization", "config": {"name": "separable_conv_1_bn_normal_left5_1", "trainable": true, "axis": -1, "momentum": 0.9997, "epsilon": 0.001, "center": true, "scale": true, "beta_initializer": {"class_name": "Zeros", "config": {}}, "gamma_initializer": {"class_name": "Ones", "config": {}}, "moving_mean_initializer": {"class_name": "Zeros", "config": {}}, "moving_variance_initializer": {"class_name": "Ones", "config": {}}, "beta_regularizer": null, "gamma_regularizer": null, "beta_constraint": null, "gamma_constraint": null}, "inbound_nodes": [[["separable_conv_1_normal_left5_1", 0, 0, {}]]]}, {"name": "activation_297", "class_name": "Activation", "config": {"name": "activation_297", "trainable": true, "activation": "relu"}, "inbound_nodes": [[["separable_conv_1_bn_normal_left1_1", 0, 0, {}]]]}, {"name": "activation_299", "class_name": "Activation", "config": {"name": "activation_299", "trainable": true, "activation": "relu"}, "inbound_nodes": [[["separable_conv_1_bn_normal_right1_1", 0, 0, {}]]]}, {"name": "activation_301", "class_name": "Activation", "config": {"name": "activation_301", "trainable": true, "activation": "relu"}, "inbound_nodes": [[["separable_conv_1_bn_normal_left2_1", 0, 0, {}]]]}, {"name": "activation_303", "class_name": "Activation", "config": {"name": "activation_303", "trainable": true, "activation": "relu"}, "inbound_nodes": [[["separable_conv_1_bn_normal_right2_1", 0, 0, {}]]]}, {"name": "activation_305", "class_name": "Activation", "config": {"name": "activation_305", "trainable": true, "activation": "relu"}, "inbound_nodes": [[["separable_conv_1_bn_normal_left5_1", 0, 0, {}]]]}, {"name": "separable_conv_2_normal_left1_1", "class_name": "SeparableConv2D", "config": {"name": "separable_conv_2_normal_left1_1", "trainable": true, "filters": 44, "kernel_size": [5, 5], "strides": [1, 1], "padding": "same", "data_format": "channels_last", "dilation_rate": [1, 1], "activation": "linear", "use_bias": false, "bias_initializer": {"class_name": "Zeros", "config": {}}, "bias_regularizer": null, "activity_regularizer": null, "bias_constraint": null, "depth_multiplier": 1, "depthwise_initializer": {"class_name": "VarianceScaling", "config": {"scale": 1.0, "mode": "fan_avg", "distribution": "uniform", "seed": null}}, "pointwise_initializer": {"class_name": "VarianceScaling", "config": {"scale": 1.0, "mode": "fan_avg", "distribution": "uniform", "seed": null}}, "depthwise_regularizer": null, "pointwise_regularizer": null, "depthwise_constraint": null, "pointwise_constraint": null}, "inbound_nodes": [[["activation_297", 0, 0, {}]]]}, {"name": "separable_conv_2_normal_right1_1", "class_name": "SeparableConv2D", "config": {"name": "separable_conv_2_normal_right1_1", "trainable": true, "filters": 44, "kernel_size": [3, 3], "strides": [1, 1], "padding": "same", "data_format": "channels_last", "dilation_rate": [1, 1], "activation": "linear", "use_bias": false, "bias_initializer": {"class_name": "Zeros", "config": {}}, "bias_regularizer": null, "activity_regularizer": null, "bias_constraint": null, "depth_multiplier": 1, "depthwise_initializer": {"class_name": "VarianceScaling", "config": {"scale": 1.0, "mode": "fan_avg", "distribution": "uniform", "seed": null}}, "pointwise_initializer": {"class_name": "VarianceScaling", "config": {"scale": 1.0, "mode": "fan_avg", "distribution": "uniform", "seed": null}}, "depthwise_regularizer": null, "pointwise_regularizer": null, "depthwise_constraint": null, "pointwise_constraint": null}, "inbound_nodes": [[["activation_299", 0, 0, {}]]]}, {"name": "separable_conv_2_normal_left2_1", "class_name": "SeparableConv2D", "config": {"name": "separable_conv_2_normal_left2_1", "trainable": true, "filters": 44, "kernel_size": [5, 5], "strides": [1, 1], "padding": "same", "data_format": "channels_last", "dilation_rate": [1, 1], "activation": "linear", "use_bias": false, "bias_initializer": {"class_name": "Zeros", "config": {}}, "bias_regularizer": null, "activity_regularizer": null, "bias_constraint": null, "depth_multiplier": 1, "depthwise_initializer": {"class_name": "VarianceScaling", "config": {"scale": 1.0, "mode": "fan_avg", "distribution": "uniform", "seed": null}}, "pointwise_initializer": {"class_name": "VarianceScaling", "config": {"scale": 1.0, "mode": "fan_avg", "distribution": "uniform", "seed": null}}, "depthwise_regularizer": null, "pointwise_regularizer": null, "depthwise_constraint": null, "pointwise_constraint": null}, "inbound_nodes": [[["activation_301", 0, 0, {}]]]}, {"name": "separable_conv_2_normal_right2_1", "class_name": "SeparableConv2D", "config": {"name": "separable_conv_2_normal_right2_1", "trainable": true, "filters": 44, "kernel_size": [3, 3], "strides": [1, 1], "padding": "same", "data_format": "channels_last", "dilation_rate": [1, 1], "activation": "linear", "use_bias": false, "bias_initializer": {"class_name": "Zeros", "config": {}}, "bias_regularizer": null, "activity_regularizer": null, "bias_constraint": null, "depth_multiplier": 1, "depthwise_initializer": {"class_name": "VarianceScaling", "config": {"scale": 1.0, "mode": "fan_avg", "distribution": "uniform", "seed": null}}, "pointwise_initializer": {"class_name": "VarianceScaling", "config": {"scale": 1.0, "mode": "fan_avg", "distribution": "uniform", "seed": null}}, "depthwise_regularizer": null, "pointwise_regularizer": null, "depthwise_constraint": null, "pointwise_constraint": null}, "inbound_nodes": [[["activation_303", 0, 0, {}]]]}, {"name": "separable_conv_2_normal_left5_1", "class_name": "SeparableConv2D", "config": {"name": "separable_conv_2_normal_left5_1", "trainable": true, "filters": 44, "kernel_size": [3, 3], "strides": [1, 1], "padding": "same", "data_format": "channels_last", "dilation_rate": [1, 1], "activation": "linear", "use_bias": false, "bias_initializer": {"class_name": "Zeros", "config": {}}, "bias_regularizer": null, "activity_regularizer": null, "bias_constraint": null, "depth_multiplier": 1, "depthwise_initializer": {"class_name": "VarianceScaling", "config": {"scale": 1.0, "mode": "fan_avg", "distribution": "uniform", "seed": null}}, "pointwise_initializer": {"class_name": "VarianceScaling", "config": {"scale": 1.0, "mode": "fan_avg", "distribution": "uniform", "seed": null}}, "depthwise_regularizer": null, "pointwise_regularizer": null, "depthwise_constraint": null, "pointwise_constraint": null}, "inbound_nodes": [[["activation_305", 0, 0, {}]]]}, {"name": "separable_conv_2_bn_normal_left1_1", "class_name": "BatchNormalization", "config": {"name": "separable_conv_2_bn_normal_left1_1", "trainable": true, "axis": -1, "momentum": 0.9997, "epsilon": 0.001, "center": true, "scale": true, "beta_initializer": {"class_name": "Zeros", "config": {}}, "gamma_initializer": {"class_name": "Ones", "config": {}}, "moving_mean_initializer": {"class_name": "Zeros", "config": {}}, "moving_variance_initializer": {"class_name": "Ones", "config": {}}, "beta_regularizer": null, "gamma_regularizer": null, "beta_constraint": null, "gamma_constraint": null}, "inbound_nodes": [[["separable_conv_2_normal_left1_1", 0, 0, {}]]]}, {"name": "separable_conv_2_bn_normal_right1_1", "class_name": "BatchNormalization", "config": {"name": "separable_conv_2_bn_normal_right1_1", "trainable": true, "axis": -1, "momentum": 0.9997, "epsilon": 0.001, "center": true, "scale": true, "beta_initializer": {"class_name": "Zeros", "config": {}}, "gamma_initializer": {"class_name": "Ones", "config": {}}, "moving_mean_initializer": {"class_name": "Zeros", "config": {}}, "moving_variance_initializer": {"class_name": "Ones", "config": {}}, "beta_regularizer": null, "gamma_regularizer": null, "beta_constraint": null, "gamma_constraint": null}, "inbound_nodes": [[["separable_conv_2_normal_right1_1", 0, 0, {}]]]}, {"name": "separable_conv_2_bn_normal_left2_1", "class_name": "BatchNormalization", "config": {"name": "separable_conv_2_bn_normal_left2_1", "trainable": true, "axis": -1, "momentum": 0.9997, "epsilon": 0.001, "center": true, "scale": true, "beta_initializer": {"class_name": "Zeros", "config": {}}, "gamma_initializer": {"class_name": "Ones", "config": {}}, "moving_mean_initializer": {"class_name": "Zeros", "config": {}}, "moving_variance_initializer": {"class_name": "Ones", "config": {}}, "beta_regularizer": null, "gamma_regularizer": null, "beta_constraint": null, "gamma_constraint": null}, "inbound_nodes": [[["separable_conv_2_normal_left2_1", 0, 0, {}]]]}, {"name": "separable_conv_2_bn_normal_right2_1", "class_name": "BatchNormalization", "config": {"name": "separable_conv_2_bn_normal_right2_1", "trainable": true, "axis": -1, "momentum": 0.9997, "epsilon": 0.001, "center": true, "scale": true, "beta_initializer": {"class_name": "Zeros", "config": {}}, "gamma_initializer": {"class_name": "Ones", "config": {}}, "moving_mean_initializer": {"class_name": "Zeros", "config": {}}, "moving_variance_initializer": {"class_name": "Ones", "config": {}}, "beta_regularizer": null, "gamma_regularizer": null, "beta_constraint": null, "gamma_constraint": null}, "inbound_nodes": [[["separable_conv_2_normal_right2_1", 0, 0, {}]]]}, {"name": "normal_left3_1", "class_name": "AveragePooling2D", "config": {"name": "normal_left3_1", "trainable": true, "pool_size": [3, 3], "padding": "same", "strides": [1, 1], "data_format": "channels_last"}, "inbound_nodes": [[["normal_bn_1_1", 0, 0, {}]]]}, {"name": "normal_left4_1", "class_name": "AveragePooling2D", "config": {"name": "normal_left4_1", "trainable": true, "pool_size": [3, 3], "padding": "same", "strides": [1, 1], "data_format": "channels_last"}, "inbound_nodes": [[["adjust_bn_1", 0, 0, {}]]]}, {"name": "normal_right4_1", "class_name": "AveragePooling2D", "config": {"name": "normal_right4_1", "trainable": true, "pool_size": [3, 3], "padding": "same", "strides": [1, 1], "data_format": "channels_last"}, "inbound_nodes": [[["adjust_bn_1", 0, 0, {}]]]}, {"name": "separable_conv_2_bn_normal_left5_1", "class_name": "BatchNormalization", "config": {"name": "separable_conv_2_bn_normal_left5_1", "trainable": true, "axis": -1, "momentum": 0.9997, "epsilon": 0.001, "center": true, "scale": true, "beta_initializer": {"class_name": "Zeros", "config": {}}, "gamma_initializer": {"class_name": "Ones", "config": {}}, "moving_mean_initializer": {"class_name": "Zeros", "config": {}}, "moving_variance_initializer": {"class_name": "Ones", "config": {}}, "beta_regularizer": null, "gamma_regularizer": null, "beta_constraint": null, "gamma_constraint": null}, "inbound_nodes": [[["separable_conv_2_normal_left5_1", 0, 0, {}]]]}, {"name": "normal_add_1_1", "class_name": "Add", "config": {"name": "normal_add_1_1", "trainable": true}, "inbound_nodes": [[["separable_conv_2_bn_normal_left1_1", 0, 0, {}], ["separable_conv_2_bn_normal_right1_1", 0, 0, {}]]]}, {"name": "normal_add_2_1", "class_name": "Add", "config": {"name": "normal_add_2_1", "trainable": true}, "inbound_nodes": [[["separable_conv_2_bn_normal_left2_1", 0, 0, {}], ["separable_conv_2_bn_normal_right2_1", 0, 0, {}]]]}, {"name": "normal_add_3_1", "class_name": "Add", "config": {"name": "normal_add_3_1", "trainable": true}, "inbound_nodes": [[["normal_left3_1", 0, 0, {}], ["adjust_bn_1", 0, 0, {}]]]}, {"name": "normal_add_4_1", "class_name": "Add", "config": {"name": "normal_add_4_1", "trainable": true}, "inbound_nodes": [[["normal_left4_1", 0, 0, {}], ["normal_right4_1", 0, 0, {}]]]}, {"name": "normal_add_5_1", "class_name": "Add", "config": {"name": "normal_add_5_1", "trainable": true}, "inbound_nodes": [[["separable_conv_2_bn_normal_left5_1", 0, 0, {}], ["normal_bn_1_1", 0, 0, {}]]]}, {"name": "normal_concat_1", "class_name": "Concatenate", "config": {"name": "normal_concat_1", "trainable": true, "axis": -1}, "inbound_nodes": [[["adjust_bn_1", 0, 0, {}], ["normal_add_1_1", 0, 0, {}], ["normal_add_2_1", 0, 0, {}], ["normal_add_3_1", 0, 0, {}], ["normal_add_4_1", 0, 0, {}], ["normal_add_5_1", 0, 0, {}]]]}, {"name": "activation_306", "class_name": "Activation", "config": {"name": "activation_306", "trainable": true, "activation": "relu"}, "inbound_nodes": [[["normal_concat_0", 0, 0, {}]]]}, {"name": "activation_307", "class_name": "Activation", "config": {"name": "activation_307", "trainable": true, "activation": "relu"}, "inbound_nodes": [[["normal_concat_1", 0, 0, {}]]]}, {"name": "adjust_conv_projection_2", "class_name": "Conv2D", "config": {"name": "adjust_conv_projection_2", "trainable": true, "filters": 44, "kernel_size": [1, 1], "strides": [1, 1], "padding": "same", "data_format": "channels_last", "dilation_rate": [1, 1], "activation": "linear", "use_bias": false, "kernel_initializer": {"class_name": "VarianceScaling", "config": {"scale": 2.0, "mode": "fan_in", "distribution": "normal", "seed": null}}, "bias_initializer": {"class_name": "Zeros", "config": {}}, "kernel_regularizer": null, "bias_regularizer": null, "activity_regularizer": null, "kernel_constraint": null, "bias_constraint": null}, "inbound_nodes": [[["activation_306", 0, 0, {}]]]}, {"name": "normal_conv_1_2", "class_name": "Conv2D", "config": {"name": "normal_conv_1_2", "trainable": true, "filters": 44, "kernel_size": [1, 1], "strides": [1, 1], "padding": "same", "data_format": "channels_last", "dilation_rate": [1, 1], "activation": "linear", "use_bias": false, "kernel_initializer": {"class_name": "VarianceScaling", "config": {"scale": 2.0, "mode": "fan_in", "distribution": "normal", "seed": null}}, "bias_initializer": {"class_name": "Zeros", "config": {}}, "kernel_regularizer": null, "bias_regularizer": null, "activity_regularizer": null, "kernel_constraint": null, "bias_constraint": null}, "inbound_nodes": [[["activation_307", 0, 0, {}]]]}, {"name": "adjust_bn_2", "class_name": "BatchNormalization", "config": {"name": "adjust_bn_2", "trainable": true, "axis": -1, "momentum": 0.9997, "epsilon": 0.001, "center": true, "scale": true, "beta_initializer": {"class_name": "Zeros", "config": {}}, "gamma_initializer": {"class_name": "Ones", "config": {}}, "moving_mean_initializer": {"class_name": "Zeros", "config": {}}, "moving_variance_initializer": {"class_name": "Ones", "config": {}}, "beta_regularizer": null, "gamma_regularizer": null, "beta_constraint": null, "gamma_constraint": null}, "inbound_nodes": [[["adjust_conv_projection_2", 0, 0, {}]]]}, {"name": "normal_bn_1_2", "class_name": "BatchNormalization", "config": {"name": "normal_bn_1_2", "trainable": true, "axis": -1, "momentum": 0.9997, "epsilon": 0.001, "center": true, "scale": true, "beta_initializer": {"class_name": "Zeros", "config": {}}, "gamma_initializer": {"class_name": "Ones", "config": {}}, "moving_mean_initializer": {"class_name": "Zeros", "config": {}}, "moving_variance_initializer": {"class_name": "Ones", "config": {}}, "beta_regularizer": null, "gamma_regularizer": null, "beta_constraint": null, "gamma_constraint": null}, "inbound_nodes": [[["normal_conv_1_2", 0, 0, {}]]]}, {"name": "activation_308", "class_name": "Activation", "config": {"name": "activation_308", "trainable": true, "activation": "relu"}, "inbound_nodes": [[["normal_bn_1_2", 0, 0, {}]]]}, {"name": "activation_310", "class_name": "Activation", "config": {"name": "activation_310", "trainable": true, "activation": "relu"}, "inbound_nodes": [[["adjust_bn_2", 0, 0, {}]]]}, {"name": "activation_312", "class_name": "Activation", "config": {"name": "activation_312", "trainable": true, "activation": "relu"}, "inbound_nodes": [[["adjust_bn_2", 0, 0, {}]]]}, {"name": "activation_314", "class_name": "Activation", "config": {"name": "activation_314", "trainable": true, "activation": "relu"}, "inbound_nodes": [[["adjust_bn_2", 0, 0, {}]]]}, {"name": "activation_316", "class_name": "Activation", "config": {"name": "activation_316", "trainable": true, "activation": "relu"}, "inbound_nodes": [[["normal_bn_1_2", 0, 0, {}]]]}, {"name": "separable_conv_1_normal_left1_2", "class_name": "SeparableConv2D", "config": {"name": "separable_conv_1_normal_left1_2", "trainable": true, "filters": 44, "kernel_size": [5, 5], "strides": [1, 1], "padding": "same", "data_format": "channels_last", "dilation_rate": [1, 1], "activation": "linear", "use_bias": false, "bias_initializer": {"class_name": "Zeros", "config": {}}, "bias_regularizer": null, "activity_regularizer": null, "bias_constraint": null, "depth_multiplier": 1, "depthwise_initializer": {"class_name": "VarianceScaling", "config": {"scale": 1.0, "mode": "fan_avg", "distribution": "uniform", "seed": null}}, "pointwise_initializer": {"class_name": "VarianceScaling", "config": {"scale": 1.0, "mode": "fan_avg", "distribution": "uniform", "seed": null}}, "depthwise_regularizer": null, "pointwise_regularizer": null, "depthwise_constraint": null, "pointwise_constraint": null}, "inbound_nodes": [[["activation_308", 0, 0, {}]]]}, {"name": "separable_conv_1_normal_right1_2", "class_name": "SeparableConv2D", "config": {"name": "separable_conv_1_normal_right1_2", "trainable": true, "filters": 44, "kernel_size": [3, 3], "strides": [1, 1], "padding": "same", "data_format": "channels_last", "dilation_rate": [1, 1], "activation": "linear", "use_bias": false, "bias_initializer": {"class_name": "Zeros", "config": {}}, "bias_regularizer": null, "activity_regularizer": null, "bias_constraint": null, "depth_multiplier": 1, "depthwise_initializer": {"class_name": "VarianceScaling", "config": {"scale": 1.0, "mode": "fan_avg", "distribution": "uniform", "seed": null}}, "pointwise_initializer": {"class_name": "VarianceScaling", "config": {"scale": 1.0, "mode": "fan_avg", "distribution": "uniform", "seed": null}}, "depthwise_regularizer": null, "pointwise_regularizer": null, "depthwise_constraint": null, "pointwise_constraint": null}, "inbound_nodes": [[["activation_310", 0, 0, {}]]]}, {"name": "separable_conv_1_normal_left2_2", "class_name": "SeparableConv2D", "config": {"name": "separable_conv_1_normal_left2_2", "trainable": true, "filters": 44, "kernel_size": [5, 5], "strides": [1, 1], "padding": "same", "data_format": "channels_last", "dilation_rate": [1, 1], "activation": "linear", "use_bias": false, "bias_initializer": {"class_name": "Zeros", "config": {}}, "bias_regularizer": null, "activity_regularizer": null, "bias_constraint": null, "depth_multiplier": 1, "depthwise_initializer": {"class_name": "VarianceScaling", "config": {"scale": 1.0, "mode": "fan_avg", "distribution": "uniform", "seed": null}}, "pointwise_initializer": {"class_name": "VarianceScaling", "config": {"scale": 1.0, "mode": "fan_avg", "distribution": "uniform", "seed": null}}, "depthwise_regularizer": null, "pointwise_regularizer": null, "depthwise_constraint": null, "pointwise_constraint": null}, "inbound_nodes": [[["activation_312", 0, 0, {}]]]}, {"name": "separable_conv_1_normal_right2_2", "class_name": "SeparableConv2D", "config": {"name": "separable_conv_1_normal_right2_2", "trainable": true, "filters": 44, "kernel_size": [3, 3], "strides": [1, 1], "padding": "same", "data_format": "channels_last", "dilation_rate": [1, 1], "activation": "linear", "use_bias": false, "bias_initializer": {"class_name": "Zeros", "config": {}}, "bias_regularizer": null, "activity_regularizer": null, "bias_constraint": null, "depth_multiplier": 1, "depthwise_initializer": {"class_name": "VarianceScaling", "config": {"scale": 1.0, "mode": "fan_avg", "distribution": "uniform", "seed": null}}, "pointwise_initializer": {"class_name": "VarianceScaling", "config": {"scale": 1.0, "mode": "fan_avg", "distribution": "uniform", "seed": null}}, "depthwise_regularizer": null, "pointwise_regularizer": null, "depthwise_constraint": null, "pointwise_constraint": null}, "inbound_nodes": [[["activation_314", 0, 0, {}]]]}, {"name": "separable_conv_1_normal_left5_2", "class_name": "SeparableConv2D", "config": {"name": "separable_conv_1_normal_left5_2", "trainable": true, "filters": 44, "kernel_size": [3, 3], "strides": [1, 1], "padding": "same", "data_format": "channels_last", "dilation_rate": [1, 1], "activation": "linear", "use_bias": false, "bias_initializer": {"class_name": "Zeros", "config": {}}, "bias_regularizer": null, "activity_regularizer": null, "bias_constraint": null, "depth_multiplier": 1, "depthwise_initializer": {"class_name": "VarianceScaling", "config": {"scale": 1.0, "mode": "fan_avg", "distribution": "uniform", "seed": null}}, "pointwise_initializer": {"class_name": "VarianceScaling", "config": {"scale": 1.0, "mode": "fan_avg", "distribution": "uniform", "seed": null}}, "depthwise_regularizer": null, "pointwise_regularizer": null, "depthwise_constraint": null, "pointwise_constraint": null}, "inbound_nodes": [[["activation_316", 0, 0, {}]]]}, {"name": "separable_conv_1_bn_normal_left1_2", "class_name": "BatchNormalization", "config": {"name": "separable_conv_1_bn_normal_left1_2", "trainable": true, "axis": -1, "momentum": 0.9997, "epsilon": 0.001, "center": true, "scale": true, "beta_initializer": {"class_name": "Zeros", "config": {}}, "gamma_initializer": {"class_name": "Ones", "config": {}}, "moving_mean_initializer": {"class_name": "Zeros", "config": {}}, "moving_variance_initializer": {"class_name": "Ones", "config": {}}, "beta_regularizer": null, "gamma_regularizer": null, "beta_constraint": null, "gamma_constraint": null}, "inbound_nodes": [[["separable_conv_1_normal_left1_2", 0, 0, {}]]]}, {"name": "separable_conv_1_bn_normal_right1_2", "class_name": "BatchNormalization", "config": {"name": "separable_conv_1_bn_normal_right1_2", "trainable": true, "axis": -1, "momentum": 0.9997, "epsilon": 0.001, "center": true, "scale": true, "beta_initializer": {"class_name": "Zeros", "config": {}}, "gamma_initializer": {"class_name": "Ones", "config": {}}, "moving_mean_initializer": {"class_name": "Zeros", "config": {}}, "moving_variance_initializer": {"class_name": "Ones", "config": {}}, "beta_regularizer": null, "gamma_regularizer": null, "beta_constraint": null, "gamma_constraint": null}, "inbound_nodes": [[["separable_conv_1_normal_right1_2", 0, 0, {}]]]}, {"name": "separable_conv_1_bn_normal_left2_2", "class_name": "BatchNormalization", "config": {"name": "separable_conv_1_bn_normal_left2_2", "trainable": true, "axis": -1, "momentum": 0.9997, "epsilon": 0.001, "center": true, "scale": true, "beta_initializer": {"class_name": "Zeros", "config": {}}, "gamma_initializer": {"class_name": "Ones", "config": {}}, "moving_mean_initializer": {"class_name": "Zeros", "config": {}}, "moving_variance_initializer": {"class_name": "Ones", "config": {}}, "beta_regularizer": null, "gamma_regularizer": null, "beta_constraint": null, "gamma_constraint": null}, "inbound_nodes": [[["separable_conv_1_normal_left2_2", 0, 0, {}]]]}, {"name": "separable_conv_1_bn_normal_right2_2", "class_name": "BatchNormalization", "config": {"name": "separable_conv_1_bn_normal_right2_2", "trainable": true, "axis": -1, "momentum": 0.9997, "epsilon": 0.001, "center": true, "scale": true, "beta_initializer": {"class_name": "Zeros", "config": {}}, "gamma_initializer": {"class_name": "Ones", "config": {}}, "moving_mean_initializer": {"class_name": "Zeros", "config": {}}, "moving_variance_initializer": {"class_name": "Ones", "config": {}}, "beta_regularizer": null, "gamma_regularizer": null, "beta_constraint": null, "gamma_constraint": null}, "inbound_nodes": [[["separable_conv_1_normal_right2_2", 0, 0, {}]]]}, {"name": "separable_conv_1_bn_normal_left5_2", "class_name": "BatchNormalization", "config": {"name": "separable_conv_1_bn_normal_left5_2", "trainable": true, "axis": -1, "momentum": 0.9997, "epsilon": 0.001, "center": true, "scale": true, "beta_initializer": {"class_name": "Zeros", "config": {}}, "gamma_initializer": {"class_name": "Ones", "config": {}}, "moving_mean_initializer": {"class_name": "Zeros", "config": {}}, "moving_variance_initializer": {"class_name": "Ones", "config": {}}, "beta_regularizer": null, "gamma_regularizer": null, "beta_constraint": null, "gamma_constraint": null}, "inbound_nodes": [[["separable_conv_1_normal_left5_2", 0, 0, {}]]]}, {"name": "activation_309", "class_name": "Activation", "config": {"name": "activation_309", "trainable": true, "activation": "relu"}, "inbound_nodes": [[["separable_conv_1_bn_normal_left1_2", 0, 0, {}]]]}, {"name": "activation_311", "class_name": "Activation", "config": {"name": "activation_311", "trainable": true, "activation": "relu"}, "inbound_nodes": [[["separable_conv_1_bn_normal_right1_2", 0, 0, {}]]]}, {"name": "activation_313", "class_name": "Activation", "config": {"name": "activation_313", "trainable": true, "activation": "relu"}, "inbound_nodes": [[["separable_conv_1_bn_normal_left2_2", 0, 0, {}]]]}, {"name": "activation_315", "class_name": "Activation", "config": {"name": "activation_315", "trainable": true, "activation": "relu"}, "inbound_nodes": [[["separable_conv_1_bn_normal_right2_2", 0, 0, {}]]]}, {"name": "activation_317", "class_name": "Activation", "config": {"name": "activation_317", "trainable": true, "activation": "relu"}, "inbound_nodes": [[["separable_conv_1_bn_normal_left5_2", 0, 0, {}]]]}, {"name": "separable_conv_2_normal_left1_2", "class_name": "SeparableConv2D", "config": {"name": "separable_conv_2_normal_left1_2", "trainable": true, "filters": 44, "kernel_size": [5, 5], "strides": [1, 1], "padding": "same", "data_format": "channels_last", "dilation_rate": [1, 1], "activation": "linear", "use_bias": false, "bias_initializer": {"class_name": "Zeros", "config": {}}, "bias_regularizer": null, "activity_regularizer": null, "bias_constraint": null, "depth_multiplier": 1, "depthwise_initializer": {"class_name": "VarianceScaling", "config": {"scale": 1.0, "mode": "fan_avg", "distribution": "uniform", "seed": null}}, "pointwise_initializer": {"class_name": "VarianceScaling", "config": {"scale": 1.0, "mode": "fan_avg", "distribution": "uniform", "seed": null}}, "depthwise_regularizer": null, "pointwise_regularizer": null, "depthwise_constraint": null, "pointwise_constraint": null}, "inbound_nodes": [[["activation_309", 0, 0, {}]]]}, {"name": "separable_conv_2_normal_right1_2", "class_name": "SeparableConv2D", "config": {"name": "separable_conv_2_normal_right1_2", "trainable": true, "filters": 44, "kernel_size": [3, 3], "strides": [1, 1], "padding": "same", "data_format": "channels_last", "dilation_rate": [1, 1], "activation": "linear", "use_bias": false, "bias_initializer": {"class_name": "Zeros", "config": {}}, "bias_regularizer": null, "activity_regularizer": null, "bias_constraint": null, "depth_multiplier": 1, "depthwise_initializer": {"class_name": "VarianceScaling", "config": {"scale": 1.0, "mode": "fan_avg", "distribution": "uniform", "seed": null}}, "pointwise_initializer": {"class_name": "VarianceScaling", "config": {"scale": 1.0, "mode": "fan_avg", "distribution": "uniform", "seed": null}}, "depthwise_regularizer": null, "pointwise_regularizer": null, "depthwise_constraint": null, "pointwise_constraint": null}, "inbound_nodes": [[["activation_311", 0, 0, {}]]]}, {"name": "separable_conv_2_normal_left2_2", "class_name": "SeparableConv2D", "config": {"name": "separable_conv_2_normal_left2_2", "trainable": true, "filters": 44, "kernel_size": [5, 5], "strides": [1, 1], "padding": "same", "data_format": "channels_last", "dilation_rate": [1, 1], "activation": "linear", "use_bias": false, "bias_initializer": {"class_name": "Zeros", "config": {}}, "bias_regularizer": null, "activity_regularizer": null, "bias_constraint": null, "depth_multiplier": 1, "depthwise_initializer": {"class_name": "VarianceScaling", "config": {"scale": 1.0, "mode": "fan_avg", "distribution": "uniform", "seed": null}}, "pointwise_initializer": {"class_name": "VarianceScaling", "config": {"scale": 1.0, "mode": "fan_avg", "distribution": "uniform", "seed": null}}, "depthwise_regularizer": null, "pointwise_regularizer": null, "depthwise_constraint": null, "pointwise_constraint": null}, "inbound_nodes": [[["activation_313", 0, 0, {}]]]}, {"name": "separable_conv_2_normal_right2_2", "class_name": "SeparableConv2D", "config": {"name": "separable_conv_2_normal_right2_2", "trainable": true, "filters": 44, "kernel_size": [3, 3], "strides": [1, 1], "padding": "same", "data_format": "channels_last", "dilation_rate": [1, 1], "activation": "linear", "use_bias": false, "bias_initializer": {"class_name": "Zeros", "config": {}}, "bias_regularizer": null, "activity_regularizer": null, "bias_constraint": null, "depth_multiplier": 1, "depthwise_initializer": {"class_name": "VarianceScaling", "config": {"scale": 1.0, "mode": "fan_avg", "distribution": "uniform", "seed": null}}, "pointwise_initializer": {"class_name": "VarianceScaling", "config": {"scale": 1.0, "mode": "fan_avg", "distribution": "uniform", "seed": null}}, "depthwise_regularizer": null, "pointwise_regularizer": null, "depthwise_constraint": null, "pointwise_constraint": null}, "inbound_nodes": [[["activation_315", 0, 0, {}]]]}, {"name": "separable_conv_2_normal_left5_2", "class_name": "SeparableConv2D", "config": {"name": "separable_conv_2_normal_left5_2", "trainable": true, "filters": 44, "kernel_size": [3, 3], "strides": [1, 1], "padding": "same", "data_format": "channels_last", "dilation_rate": [1, 1], "activation": "linear", "use_bias": false, "bias_initializer": {"class_name": "Zeros", "config": {}}, "bias_regularizer": null, "activity_regularizer": null, "bias_constraint": null, "depth_multiplier": 1, "depthwise_initializer": {"class_name": "VarianceScaling", "config": {"scale": 1.0, "mode": "fan_avg", "distribution": "uniform", "seed": null}}, "pointwise_initializer": {"class_name": "VarianceScaling", "config": {"scale": 1.0, "mode": "fan_avg", "distribution": "uniform", "seed": null}}, "depthwise_regularizer": null, "pointwise_regularizer": null, "depthwise_constraint": null, "pointwise_constraint": null}, "inbound_nodes": [[["activation_317", 0, 0, {}]]]}, {"name": "separable_conv_2_bn_normal_left1_2", "class_name": "BatchNormalization", "config": {"name": "separable_conv_2_bn_normal_left1_2", "trainable": true, "axis": -1, "momentum": 0.9997, "epsilon": 0.001, "center": true, "scale": true, "beta_initializer": {"class_name": "Zeros", "config": {}}, "gamma_initializer": {"class_name": "Ones", "config": {}}, "moving_mean_initializer": {"class_name": "Zeros", "config": {}}, "moving_variance_initializer": {"class_name": "Ones", "config": {}}, "beta_regularizer": null, "gamma_regularizer": null, "beta_constraint": null, "gamma_constraint": null}, "inbound_nodes": [[["separable_conv_2_normal_left1_2", 0, 0, {}]]]}, {"name": "separable_conv_2_bn_normal_right1_2", "class_name": "BatchNormalization", "config": {"name": "separable_conv_2_bn_normal_right1_2", "trainable": true, "axis": -1, "momentum": 0.9997, "epsilon": 0.001, "center": true, "scale": true, "beta_initializer": {"class_name": "Zeros", "config": {}}, "gamma_initializer": {"class_name": "Ones", "config": {}}, "moving_mean_initializer": {"class_name": "Zeros", "config": {}}, "moving_variance_initializer": {"class_name": "Ones", "config": {}}, "beta_regularizer": null, "gamma_regularizer": null, "beta_constraint": null, "gamma_constraint": null}, "inbound_nodes": [[["separable_conv_2_normal_right1_2", 0, 0, {}]]]}, {"name": "separable_conv_2_bn_normal_left2_2", "class_name": "BatchNormalization", "config": {"name": "separable_conv_2_bn_normal_left2_2", "trainable": true, "axis": -1, "momentum": 0.9997, "epsilon": 0.001, "center": true, "scale": true, "beta_initializer": {"class_name": "Zeros", "config": {}}, "gamma_initializer": {"class_name": "Ones", "config": {}}, "moving_mean_initializer": {"class_name": "Zeros", "config": {}}, "moving_variance_initializer": {"class_name": "Ones", "config": {}}, "beta_regularizer": null, "gamma_regularizer": null, "beta_constraint": null, "gamma_constraint": null}, "inbound_nodes": [[["separable_conv_2_normal_left2_2", 0, 0, {}]]]}, {"name": "separable_conv_2_bn_normal_right2_2", "class_name": "BatchNormalization", "config": {"name": "separable_conv_2_bn_normal_right2_2", "trainable": true, "axis": -1, "momentum": 0.9997, "epsilon": 0.001, "center": true, "scale": true, "beta_initializer": {"class_name": "Zeros", "config": {}}, "gamma_initializer": {"class_name": "Ones", "config": {}}, "moving_mean_initializer": {"class_name": "Zeros", "config": {}}, "moving_variance_initializer": {"class_name": "Ones", "config": {}}, "beta_regularizer": null, "gamma_regularizer": null, "beta_constraint": null, "gamma_constraint": null}, "inbound_nodes": [[["separable_conv_2_normal_right2_2", 0, 0, {}]]]}, {"name": "normal_left3_2", "class_name": "AveragePooling2D", "config": {"name": "normal_left3_2", "trainable": true, "pool_size": [3, 3], "padding": "same", "strides": [1, 1], "data_format": "channels_last"}, "inbound_nodes": [[["normal_bn_1_2", 0, 0, {}]]]}, {"name": "normal_left4_2", "class_name": "AveragePooling2D", "config": {"name": "normal_left4_2", "trainable": true, "pool_size": [3, 3], "padding": "same", "strides": [1, 1], "data_format": "channels_last"}, "inbound_nodes": [[["adjust_bn_2", 0, 0, {}]]]}, {"name": "normal_right4_2", "class_name": "AveragePooling2D", "config": {"name": "normal_right4_2", "trainable": true, "pool_size": [3, 3], "padding": "same", "strides": [1, 1], "data_format": "channels_last"}, "inbound_nodes": [[["adjust_bn_2", 0, 0, {}]]]}, {"name": "separable_conv_2_bn_normal_left5_2", "class_name": "BatchNormalization", "config": {"name": "separable_conv_2_bn_normal_left5_2", "trainable": true, "axis": -1, "momentum": 0.9997, "epsilon": 0.001, "center": true, "scale": true, "beta_initializer": {"class_name": "Zeros", "config": {}}, "gamma_initializer": {"class_name": "Ones", "config": {}}, "moving_mean_initializer": {"class_name": "Zeros", "config": {}}, "moving_variance_initializer": {"class_name": "Ones", "config": {}}, "beta_regularizer": null, "gamma_regularizer": null, "beta_constraint": null, "gamma_constraint": null}, "inbound_nodes": [[["separable_conv_2_normal_left5_2", 0, 0, {}]]]}, {"name": "normal_add_1_2", "class_name": "Add", "config": {"name": "normal_add_1_2", "trainable": true}, "inbound_nodes": [[["separable_conv_2_bn_normal_left1_2", 0, 0, {}], ["separable_conv_2_bn_normal_right1_2", 0, 0, {}]]]}, {"name": "normal_add_2_2", "class_name": "Add", "config": {"name": "normal_add_2_2", "trainable": true}, "inbound_nodes": [[["separable_conv_2_bn_normal_left2_2", 0, 0, {}], ["separable_conv_2_bn_normal_right2_2", 0, 0, {}]]]}, {"name": "normal_add_3_2", "class_name": "Add", "config": {"name": "normal_add_3_2", "trainable": true}, "inbound_nodes": [[["normal_left3_2", 0, 0, {}], ["adjust_bn_2", 0, 0, {}]]]}, {"name": "normal_add_4_2", "class_name": "Add", "config": {"name": "normal_add_4_2", "trainable": true}, "inbound_nodes": [[["normal_left4_2", 0, 0, {}], ["normal_right4_2", 0, 0, {}]]]}, {"name": "normal_add_5_2", "class_name": "Add", "config": {"name": "normal_add_5_2", "trainable": true}, "inbound_nodes": [[["separable_conv_2_bn_normal_left5_2", 0, 0, {}], ["normal_bn_1_2", 0, 0, {}]]]}, {"name": "normal_concat_2", "class_name": "Concatenate", "config": {"name": "normal_concat_2", "trainable": true, "axis": -1}, "inbound_nodes": [[["adjust_bn_2", 0, 0, {}], ["normal_add_1_2", 0, 0, {}], ["normal_add_2_2", 0, 0, {}], ["normal_add_3_2", 0, 0, {}], ["normal_add_4_2", 0, 0, {}], ["normal_add_5_2", 0, 0, {}]]]}, {"name": "activation_318", "class_name": "Activation", "config": {"name": "activation_318", "trainable": true, "activation": "relu"}, "inbound_nodes": [[["normal_concat_1", 0, 0, {}]]]}, {"name": "activation_319", "class_name": "Activation", "config": {"name": "activation_319", "trainable": true, "activation": "relu"}, "inbound_nodes": [[["normal_concat_2", 0, 0, {}]]]}, {"name": "adjust_conv_projection_3", "class_name": "Conv2D", "config": {"name": "adjust_conv_projection_3", "trainable": true, "filters": 44, "kernel_size": [1, 1], "strides": [1, 1], "padding": "same", "data_format": "channels_last", "dilation_rate": [1, 1], "activation": "linear", "use_bias": false, "kernel_initializer": {"class_name": "VarianceScaling", "config": {"scale": 2.0, "mode": "fan_in", "distribution": "normal", "seed": null}}, "bias_initializer": {"class_name": "Zeros", "config": {}}, "kernel_regularizer": null, "bias_regularizer": null, "activity_regularizer": null, "kernel_constraint": null, "bias_constraint": null}, "inbound_nodes": [[["activation_318", 0, 0, {}]]]}, {"name": "normal_conv_1_3", "class_name": "Conv2D", "config": {"name": "normal_conv_1_3", "trainable": true, "filters": 44, "kernel_size": [1, 1], "strides": [1, 1], "padding": "same", "data_format": "channels_last", "dilation_rate": [1, 1], "activation": "linear", "use_bias": false, "kernel_initializer": {"class_name": "VarianceScaling", "config": {"scale": 2.0, "mode": "fan_in", "distribution": "normal", "seed": null}}, "bias_initializer": {"class_name": "Zeros", "config": {}}, "kernel_regularizer": null, "bias_regularizer": null, "activity_regularizer": null, "kernel_constraint": null, "bias_constraint": null}, "inbound_nodes": [[["activation_319", 0, 0, {}]]]}, {"name": "adjust_bn_3", "class_name": "BatchNormalization", "config": {"name": "adjust_bn_3", "trainable": true, "axis": -1, "momentum": 0.9997, "epsilon": 0.001, "center": true, "scale": true, "beta_initializer": {"class_name": "Zeros", "config": {}}, "gamma_initializer": {"class_name": "Ones", "config": {}}, "moving_mean_initializer": {"class_name": "Zeros", "config": {}}, "moving_variance_initializer": {"class_name": "Ones", "config": {}}, "beta_regularizer": null, "gamma_regularizer": null, "beta_constraint": null, "gamma_constraint": null}, "inbound_nodes": [[["adjust_conv_projection_3", 0, 0, {}]]]}, {"name": "normal_bn_1_3", "class_name": "BatchNormalization", "config": {"name": "normal_bn_1_3", "trainable": true, "axis": -1, "momentum": 0.9997, "epsilon": 0.001, "center": true, "scale": true, "beta_initializer": {"class_name": "Zeros", "config": {}}, "gamma_initializer": {"class_name": "Ones", "config": {}}, "moving_mean_initializer": {"class_name": "Zeros", "config": {}}, "moving_variance_initializer": {"class_name": "Ones", "config": {}}, "beta_regularizer": null, "gamma_regularizer": null, "beta_constraint": null, "gamma_constraint": null}, "inbound_nodes": [[["normal_conv_1_3", 0, 0, {}]]]}, {"name": "activation_320", "class_name": "Activation", "config": {"name": "activation_320", "trainable": true, "activation": "relu"}, "inbound_nodes": [[["normal_bn_1_3", 0, 0, {}]]]}, {"name": "activation_322", "class_name": "Activation", "config": {"name": "activation_322", "trainable": true, "activation": "relu"}, "inbound_nodes": [[["adjust_bn_3", 0, 0, {}]]]}, {"name": "activation_324", "class_name": "Activation", "config": {"name": "activation_324", "trainable": true, "activation": "relu"}, "inbound_nodes": [[["adjust_bn_3", 0, 0, {}]]]}, {"name": "activation_326", "class_name": "Activation", "config": {"name": "activation_326", "trainable": true, "activation": "relu"}, "inbound_nodes": [[["adjust_bn_3", 0, 0, {}]]]}, {"name": "activation_328", "class_name": "Activation", "config": {"name": "activation_328", "trainable": true, "activation": "relu"}, "inbound_nodes": [[["normal_bn_1_3", 0, 0, {}]]]}, {"name": "separable_conv_1_normal_left1_3", "class_name": "SeparableConv2D", "config": {"name": "separable_conv_1_normal_left1_3", "trainable": true, "filters": 44, "kernel_size": [5, 5], "strides": [1, 1], "padding": "same", "data_format": "channels_last", "dilation_rate": [1, 1], "activation": "linear", "use_bias": false, "bias_initializer": {"class_name": "Zeros", "config": {}}, "bias_regularizer": null, "activity_regularizer": null, "bias_constraint": null, "depth_multiplier": 1, "depthwise_initializer": {"class_name": "VarianceScaling", "config": {"scale": 1.0, "mode": "fan_avg", "distribution": "uniform", "seed": null}}, "pointwise_initializer": {"class_name": "VarianceScaling", "config": {"scale": 1.0, "mode": "fan_avg", "distribution": "uniform", "seed": null}}, "depthwise_regularizer": null, "pointwise_regularizer": null, "depthwise_constraint": null, "pointwise_constraint": null}, "inbound_nodes": [[["activation_320", 0, 0, {}]]]}, {"name": "separable_conv_1_normal_right1_3", "class_name": "SeparableConv2D", "config": {"name": "separable_conv_1_normal_right1_3", "trainable": true, "filters": 44, "kernel_size": [3, 3], "strides": [1, 1], "padding": "same", "data_format": "channels_last", "dilation_rate": [1, 1], "activation": "linear", "use_bias": false, "bias_initializer": {"class_name": "Zeros", "config": {}}, "bias_regularizer": null, "activity_regularizer": null, "bias_constraint": null, "depth_multiplier": 1, "depthwise_initializer": {"class_name": "VarianceScaling", "config": {"scale": 1.0, "mode": "fan_avg", "distribution": "uniform", "seed": null}}, "pointwise_initializer": {"class_name": "VarianceScaling", "config": {"scale": 1.0, "mode": "fan_avg", "distribution": "uniform", "seed": null}}, "depthwise_regularizer": null, "pointwise_regularizer": null, "depthwise_constraint": null, "pointwise_constraint": null}, "inbound_nodes": [[["activation_322", 0, 0, {}]]]}, {"name": "separable_conv_1_normal_left2_3", "class_name": "SeparableConv2D", "config": {"name": "separable_conv_1_normal_left2_3", "trainable": true, "filters": 44, "kernel_size": [5, 5], "strides": [1, 1], "padding": "same", "data_format": "channels_last", "dilation_rate": [1, 1], "activation": "linear", "use_bias": false, "bias_initializer": {"class_name": "Zeros", "config": {}}, "bias_regularizer": null, "activity_regularizer": null, "bias_constraint": null, "depth_multiplier": 1, "depthwise_initializer": {"class_name": "VarianceScaling", "config": {"scale": 1.0, "mode": "fan_avg", "distribution": "uniform", "seed": null}}, "pointwise_initializer": {"class_name": "VarianceScaling", "config": {"scale": 1.0, "mode": "fan_avg", "distribution": "uniform", "seed": null}}, "depthwise_regularizer": null, "pointwise_regularizer": null, "depthwise_constraint": null, "pointwise_constraint": null}, "inbound_nodes": [[["activation_324", 0, 0, {}]]]}, {"name": "separable_conv_1_normal_right2_3", "class_name": "SeparableConv2D", "config": {"name": "separable_conv_1_normal_right2_3", "trainable": true, "filters": 44, "kernel_size": [3, 3], "strides": [1, 1], "padding": "same", "data_format": "channels_last", "dilation_rate": [1, 1], "activation": "linear", "use_bias": false, "bias_initializer": {"class_name": "Zeros", "config": {}}, "bias_regularizer": null, "activity_regularizer": null, "bias_constraint": null, "depth_multiplier": 1, "depthwise_initializer": {"class_name": "VarianceScaling", "config": {"scale": 1.0, "mode": "fan_avg", "distribution": "uniform", "seed": null}}, "pointwise_initializer": {"class_name": "VarianceScaling", "config": {"scale": 1.0, "mode": "fan_avg", "distribution": "uniform", "seed": null}}, "depthwise_regularizer": null, "pointwise_regularizer": null, "depthwise_constraint": null, "pointwise_constraint": null}, "inbound_nodes": [[["activation_326", 0, 0, {}]]]}, {"name": "separable_conv_1_normal_left5_3", "class_name": "SeparableConv2D", "config": {"name": "separable_conv_1_normal_left5_3", "trainable": true, "filters": 44, "kernel_size": [3, 3], "strides": [1, 1], "padding": "same", "data_format": "channels_last", "dilation_rate": [1, 1], "activation": "linear", "use_bias": false, "bias_initializer": {"class_name": "Zeros", "config": {}}, "bias_regularizer": null, "activity_regularizer": null, "bias_constraint": null, "depth_multiplier": 1, "depthwise_initializer": {"class_name": "VarianceScaling", "config": {"scale": 1.0, "mode": "fan_avg", "distribution": "uniform", "seed": null}}, "pointwise_initializer": {"class_name": "VarianceScaling", "config": {"scale": 1.0, "mode": "fan_avg", "distribution": "uniform", "seed": null}}, "depthwise_regularizer": null, "pointwise_regularizer": null, "depthwise_constraint": null, "pointwise_constraint": null}, "inbound_nodes": [[["activation_328", 0, 0, {}]]]}, {"name": "separable_conv_1_bn_normal_left1_3", "class_name": "BatchNormalization", "config": {"name": "separable_conv_1_bn_normal_left1_3", "trainable": true, "axis": -1, "momentum": 0.9997, "epsilon": 0.001, "center": true, "scale": true, "beta_initializer": {"class_name": "Zeros", "config": {}}, "gamma_initializer": {"class_name": "Ones", "config": {}}, "moving_mean_initializer": {"class_name": "Zeros", "config": {}}, "moving_variance_initializer": {"class_name": "Ones", "config": {}}, "beta_regularizer": null, "gamma_regularizer": null, "beta_constraint": null, "gamma_constraint": null}, "inbound_nodes": [[["separable_conv_1_normal_left1_3", 0, 0, {}]]]}, {"name": "separable_conv_1_bn_normal_right1_3", "class_name": "BatchNormalization", "config": {"name": "separable_conv_1_bn_normal_right1_3", "trainable": true, "axis": -1, "momentum": 0.9997, "epsilon": 0.001, "center": true, "scale": true, "beta_initializer": {"class_name": "Zeros", "config": {}}, "gamma_initializer": {"class_name": "Ones", "config": {}}, "moving_mean_initializer": {"class_name": "Zeros", "config": {}}, "moving_variance_initializer": {"class_name": "Ones", "config": {}}, "beta_regularizer": null, "gamma_regularizer": null, "beta_constraint": null, "gamma_constraint": null}, "inbound_nodes": [[["separable_conv_1_normal_right1_3", 0, 0, {}]]]}, {"name": "separable_conv_1_bn_normal_left2_3", "class_name": "BatchNormalization", "config": {"name": "separable_conv_1_bn_normal_left2_3", "trainable": true, "axis": -1, "momentum": 0.9997, "epsilon": 0.001, "center": true, "scale": true, "beta_initializer": {"class_name": "Zeros", "config": {}}, "gamma_initializer": {"class_name": "Ones", "config": {}}, "moving_mean_initializer": {"class_name": "Zeros", "config": {}}, "moving_variance_initializer": {"class_name": "Ones", "config": {}}, "beta_regularizer": null, "gamma_regularizer": null, "beta_constraint": null, "gamma_constraint": null}, "inbound_nodes": [[["separable_conv_1_normal_left2_3", 0, 0, {}]]]}, {"name": "separable_conv_1_bn_normal_right2_3", "class_name": "BatchNormalization", "config": {"name": "separable_conv_1_bn_normal_right2_3", "trainable": true, "axis": -1, "momentum": 0.9997, "epsilon": 0.001, "center": true, "scale": true, "beta_initializer": {"class_name": "Zeros", "config": {}}, "gamma_initializer": {"class_name": "Ones", "config": {}}, "moving_mean_initializer": {"class_name": "Zeros", "config": {}}, "moving_variance_initializer": {"class_name": "Ones", "config": {}}, "beta_regularizer": null, "gamma_regularizer": null, "beta_constraint": null, "gamma_constraint": null}, "inbound_nodes": [[["separable_conv_1_normal_right2_3", 0, 0, {}]]]}, {"name": "separable_conv_1_bn_normal_left5_3", "class_name": "BatchNormalization", "config": {"name": "separable_conv_1_bn_normal_left5_3", "trainable": true, "axis": -1, "momentum": 0.9997, "epsilon": 0.001, "center": true, "scale": true, "beta_initializer": {"class_name": "Zeros", "config": {}}, "gamma_initializer": {"class_name": "Ones", "config": {}}, "moving_mean_initializer": {"class_name": "Zeros", "config": {}}, "moving_variance_initializer": {"class_name": "Ones", "config": {}}, "beta_regularizer": null, "gamma_regularizer": null, "beta_constraint": null, "gamma_constraint": null}, "inbound_nodes": [[["separable_conv_1_normal_left5_3", 0, 0, {}]]]}, {"name": "activation_321", "class_name": "Activation", "config": {"name": "activation_321", "trainable": true, "activation": "relu"}, "inbound_nodes": [[["separable_conv_1_bn_normal_left1_3", 0, 0, {}]]]}, {"name": "activation_323", "class_name": "Activation", "config": {"name": "activation_323", "trainable": true, "activation": "relu"}, "inbound_nodes": [[["separable_conv_1_bn_normal_right1_3", 0, 0, {}]]]}, {"name": "activation_325", "class_name": "Activation", "config": {"name": "activation_325", "trainable": true, "activation": "relu"}, "inbound_nodes": [[["separable_conv_1_bn_normal_left2_3", 0, 0, {}]]]}, {"name": "activation_327", "class_name": "Activation", "config": {"name": "activation_327", "trainable": true, "activation": "relu"}, "inbound_nodes": [[["separable_conv_1_bn_normal_right2_3", 0, 0, {}]]]}, {"name": "activation_329", "class_name": "Activation", "config": {"name": "activation_329", "trainable": true, "activation": "relu"}, "inbound_nodes": [[["separable_conv_1_bn_normal_left5_3", 0, 0, {}]]]}, {"name": "separable_conv_2_normal_left1_3", "class_name": "SeparableConv2D", "config": {"name": "separable_conv_2_normal_left1_3", "trainable": true, "filters": 44, "kernel_size": [5, 5], "strides": [1, 1], "padding": "same", "data_format": "channels_last", "dilation_rate": [1, 1], "activation": "linear", "use_bias": false, "bias_initializer": {"class_name": "Zeros", "config": {}}, "bias_regularizer": null, "activity_regularizer": null, "bias_constraint": null, "depth_multiplier": 1, "depthwise_initializer": {"class_name": "VarianceScaling", "config": {"scale": 1.0, "mode": "fan_avg", "distribution": "uniform", "seed": null}}, "pointwise_initializer": {"class_name": "VarianceScaling", "config": {"scale": 1.0, "mode": "fan_avg", "distribution": "uniform", "seed": null}}, "depthwise_regularizer": null, "pointwise_regularizer": null, "depthwise_constraint": null, "pointwise_constraint": null}, "inbound_nodes": [[["activation_321", 0, 0, {}]]]}, {"name": "separable_conv_2_normal_right1_3", "class_name": "SeparableConv2D", "config": {"name": "separable_conv_2_normal_right1_3", "trainable": true, "filters": 44, "kernel_size": [3, 3], "strides": [1, 1], "padding": "same", "data_format": "channels_last", "dilation_rate": [1, 1], "activation": "linear", "use_bias": false, "bias_initializer": {"class_name": "Zeros", "config": {}}, "bias_regularizer": null, "activity_regularizer": null, "bias_constraint": null, "depth_multiplier": 1, "depthwise_initializer": {"class_name": "VarianceScaling", "config": {"scale": 1.0, "mode": "fan_avg", "distribution": "uniform", "seed": null}}, "pointwise_initializer": {"class_name": "VarianceScaling", "config": {"scale": 1.0, "mode": "fan_avg", "distribution": "uniform", "seed": null}}, "depthwise_regularizer": null, "pointwise_regularizer": null, "depthwise_constraint": null, "pointwise_constraint": null}, "inbound_nodes": [[["activation_323", 0, 0, {}]]]}, {"name": "separable_conv_2_normal_left2_3", "class_name": "SeparableConv2D", "config": {"name": "separable_conv_2_normal_left2_3", "trainable": true, "filters": 44, "kernel_size": [5, 5], "strides": [1, 1], "padding": "same", "data_format": "channels_last", "dilation_rate": [1, 1], "activation": "linear", "use_bias": false, "bias_initializer": {"class_name": "Zeros", "config": {}}, "bias_regularizer": null, "activity_regularizer": null, "bias_constraint": null, "depth_multiplier": 1, "depthwise_initializer": {"class_name": "VarianceScaling", "config": {"scale": 1.0, "mode": "fan_avg", "distribution": "uniform", "seed": null}}, "pointwise_initializer": {"class_name": "VarianceScaling", "config": {"scale": 1.0, "mode": "fan_avg", "distribution": "uniform", "seed": null}}, "depthwise_regularizer": null, "pointwise_regularizer": null, "depthwise_constraint": null, "pointwise_constraint": null}, "inbound_nodes": [[["activation_325", 0, 0, {}]]]}, {"name": "separable_conv_2_normal_right2_3", "class_name": "SeparableConv2D", "config": {"name": "separable_conv_2_normal_right2_3", "trainable": true, "filters": 44, "kernel_size": [3, 3], "strides": [1, 1], "padding": "same", "data_format": "channels_last", "dilation_rate": [1, 1], "activation": "linear", "use_bias": false, "bias_initializer": {"class_name": "Zeros", "config": {}}, "bias_regularizer": null, "activity_regularizer": null, "bias_constraint": null, "depth_multiplier": 1, "depthwise_initializer": {"class_name": "VarianceScaling", "config": {"scale": 1.0, "mode": "fan_avg", "distribution": "uniform", "seed": null}}, "pointwise_initializer": {"class_name": "VarianceScaling", "config": {"scale": 1.0, "mode": "fan_avg", "distribution": "uniform", "seed": null}}, "depthwise_regularizer": null, "pointwise_regularizer": null, "depthwise_constraint": null, "pointwise_constraint": null}, "inbound_nodes": [[["activation_327", 0, 0, {}]]]}, {"name": "separable_conv_2_normal_left5_3", "class_name": "SeparableConv2D", "config": {"name": "separable_conv_2_normal_left5_3", "trainable": true, "filters": 44, "kernel_size": [3, 3], "strides": [1, 1], "padding": "same", "data_format": "channels_last", "dilation_rate": [1, 1], "activation": "linear", "use_bias": false, "bias_initializer": {"class_name": "Zeros", "config": {}}, "bias_regularizer": null, "activity_regularizer": null, "bias_constraint": null, "depth_multiplier": 1, "depthwise_initializer": {"class_name": "VarianceScaling", "config": {"scale": 1.0, "mode": "fan_avg", "distribution": "uniform", "seed": null}}, "pointwise_initializer": {"class_name": "VarianceScaling", "config": {"scale": 1.0, "mode": "fan_avg", "distribution": "uniform", "seed": null}}, "depthwise_regularizer": null, "pointwise_regularizer": null, "depthwise_constraint": null, "pointwise_constraint": null}, "inbound_nodes": [[["activation_329", 0, 0, {}]]]}, {"name": "separable_conv_2_bn_normal_left1_3", "class_name": "BatchNormalization", "config": {"name": "separable_conv_2_bn_normal_left1_3", "trainable": true, "axis": -1, "momentum": 0.9997, "epsilon": 0.001, "center": true, "scale": true, "beta_initializer": {"class_name": "Zeros", "config": {}}, "gamma_initializer": {"class_name": "Ones", "config": {}}, "moving_mean_initializer": {"class_name": "Zeros", "config": {}}, "moving_variance_initializer": {"class_name": "Ones", "config": {}}, "beta_regularizer": null, "gamma_regularizer": null, "beta_constraint": null, "gamma_constraint": null}, "inbound_nodes": [[["separable_conv_2_normal_left1_3", 0, 0, {}]]]}, {"name": "separable_conv_2_bn_normal_right1_3", "class_name": "BatchNormalization", "config": {"name": "separable_conv_2_bn_normal_right1_3", "trainable": true, "axis": -1, "momentum": 0.9997, "epsilon": 0.001, "center": true, "scale": true, "beta_initializer": {"class_name": "Zeros", "config": {}}, "gamma_initializer": {"class_name": "Ones", "config": {}}, "moving_mean_initializer": {"class_name": "Zeros", "config": {}}, "moving_variance_initializer": {"class_name": "Ones", "config": {}}, "beta_regularizer": null, "gamma_regularizer": null, "beta_constraint": null, "gamma_constraint": null}, "inbound_nodes": [[["separable_conv_2_normal_right1_3", 0, 0, {}]]]}, {"name": "separable_conv_2_bn_normal_left2_3", "class_name": "BatchNormalization", "config": {"name": "separable_conv_2_bn_normal_left2_3", "trainable": true, "axis": -1, "momentum": 0.9997, "epsilon": 0.001, "center": true, "scale": true, "beta_initializer": {"class_name": "Zeros", "config": {}}, "gamma_initializer": {"class_name": "Ones", "config": {}}, "moving_mean_initializer": {"class_name": "Zeros", "config": {}}, "moving_variance_initializer": {"class_name": "Ones", "config": {}}, "beta_regularizer": null, "gamma_regularizer": null, "beta_constraint": null, "gamma_constraint": null}, "inbound_nodes": [[["separable_conv_2_normal_left2_3", 0, 0, {}]]]}, {"name": "separable_conv_2_bn_normal_right2_3", "class_name": "BatchNormalization", "config": {"name": "separable_conv_2_bn_normal_right2_3", "trainable": true, "axis": -1, "momentum": 0.9997, "epsilon": 0.001, "center": true, "scale": true, "beta_initializer": {"class_name": "Zeros", "config": {}}, "gamma_initializer": {"class_name": "Ones", "config": {}}, "moving_mean_initializer": {"class_name": "Zeros", "config": {}}, "moving_variance_initializer": {"class_name": "Ones", "config": {}}, "beta_regularizer": null, "gamma_regularizer": null, "beta_constraint": null, "gamma_constraint": null}, "inbound_nodes": [[["separable_conv_2_normal_right2_3", 0, 0, {}]]]}, {"name": "normal_left3_3", "class_name": "AveragePooling2D", "config": {"name": "normal_left3_3", "trainable": true, "pool_size": [3, 3], "padding": "same", "strides": [1, 1], "data_format": "channels_last"}, "inbound_nodes": [[["normal_bn_1_3", 0, 0, {}]]]}, {"name": "normal_left4_3", "class_name": "AveragePooling2D", "config": {"name": "normal_left4_3", "trainable": true, "pool_size": [3, 3], "padding": "same", "strides": [1, 1], "data_format": "channels_last"}, "inbound_nodes": [[["adjust_bn_3", 0, 0, {}]]]}, {"name": "normal_right4_3", "class_name": "AveragePooling2D", "config": {"name": "normal_right4_3", "trainable": true, "pool_size": [3, 3], "padding": "same", "strides": [1, 1], "data_format": "channels_last"}, "inbound_nodes": [[["adjust_bn_3", 0, 0, {}]]]}, {"name": "separable_conv_2_bn_normal_left5_3", "class_name": "BatchNormalization", "config": {"name": "separable_conv_2_bn_normal_left5_3", "trainable": true, "axis": -1, "momentum": 0.9997, "epsilon": 0.001, "center": true, "scale": true, "beta_initializer": {"class_name": "Zeros", "config": {}}, "gamma_initializer": {"class_name": "Ones", "config": {}}, "moving_mean_initializer": {"class_name": "Zeros", "config": {}}, "moving_variance_initializer": {"class_name": "Ones", "config": {}}, "beta_regularizer": null, "gamma_regularizer": null, "beta_constraint": null, "gamma_constraint": null}, "inbound_nodes": [[["separable_conv_2_normal_left5_3", 0, 0, {}]]]}, {"name": "normal_add_1_3", "class_name": "Add", "config": {"name": "normal_add_1_3", "trainable": true}, "inbound_nodes": [[["separable_conv_2_bn_normal_left1_3", 0, 0, {}], ["separable_conv_2_bn_normal_right1_3", 0, 0, {}]]]}, {"name": "normal_add_2_3", "class_name": "Add", "config": {"name": "normal_add_2_3", "trainable": true}, "inbound_nodes": [[["separable_conv_2_bn_normal_left2_3", 0, 0, {}], ["separable_conv_2_bn_normal_right2_3", 0, 0, {}]]]}, {"name": "normal_add_3_3", "class_name": "Add", "config": {"name": "normal_add_3_3", "trainable": true}, "inbound_nodes": [[["normal_left3_3", 0, 0, {}], ["adjust_bn_3", 0, 0, {}]]]}, {"name": "normal_add_4_3", "class_name": "Add", "config": {"name": "normal_add_4_3", "trainable": true}, "inbound_nodes": [[["normal_left4_3", 0, 0, {}], ["normal_right4_3", 0, 0, {}]]]}, {"name": "normal_add_5_3", "class_name": "Add", "config": {"name": "normal_add_5_3", "trainable": true}, "inbound_nodes": [[["separable_conv_2_bn_normal_left5_3", 0, 0, {}], ["normal_bn_1_3", 0, 0, {}]]]}, {"name": "normal_concat_3", "class_name": "Concatenate", "config": {"name": "normal_concat_3", "trainable": true, "axis": -1}, "inbound_nodes": [[["adjust_bn_3", 0, 0, {}], ["normal_add_1_3", 0, 0, {}], ["normal_add_2_3", 0, 0, {}], ["normal_add_3_3", 0, 0, {}], ["normal_add_4_3", 0, 0, {}], ["normal_add_5_3", 0, 0, {}]]]}, {"name": "activation_331", "class_name": "Activation", "config": {"name": "activation_331", "trainable": true, "activation": "relu"}, "inbound_nodes": [[["normal_concat_3", 0, 0, {}]]]}, {"name": "activation_330", "class_name": "Activation", "config": {"name": "activation_330", "trainable": true, "activation": "relu"}, "inbound_nodes": [[["normal_concat_2", 0, 0, {}]]]}, {"name": "reduction_conv_1_reduce_4", "class_name": "Conv2D", "config": {"name": "reduction_conv_1_reduce_4", "trainable": true, "filters": 88, "kernel_size": [1, 1], "strides": [1, 1], "padding": "same", "data_format": "channels_last", "dilation_rate": [1, 1], "activation": "linear", "use_bias": false, "kernel_initializer": {"class_name": "VarianceScaling", "config": {"scale": 2.0, "mode": "fan_in", "distribution": "normal", "seed": null}}, "bias_initializer": {"class_name": "Zeros", "config": {}}, "kernel_regularizer": null, "bias_regularizer": null, "activity_regularizer": null, "kernel_constraint": null, "bias_constraint": null}, "inbound_nodes": [[["activation_331", 0, 0, {}]]]}, {"name": "adjust_conv_projection_reduce_4", "class_name": "Conv2D", "config": {"name": "adjust_conv_projection_reduce_4", "trainable": true, "filters": 88, "kernel_size": [1, 1], "strides": [1, 1], "padding": "same", "data_format": "channels_last", "dilation_rate": [1, 1], "activation": "linea…
 ["separable_conv_2_bn_normal_right2_10", 0, 0, {}]]]}, {"name": "normal_add_3_10", "class_name": "Add", "config": {"name": "normal_add_3_10", "trainable": true}, "inbound_nodes": [[["normal_left3_10", 0, 0, {}], ["adjust_bn_10", 0, 0, {}]]]}, {"name": "normal_add_4_10", "class_name": "Add", "config": {"name": "normal_add_4_10", "trainable": true}, "inbound_nodes": [[["normal_left4_10", 0, 0, {}], ["normal_right4_10", 0, 0, {}]]]}, {"name": "normal_add_5_10", "class_name": "Add", "config": {"name": "normal_add_5_10", "trainable": true}, "inbound_nodes": [[["separable_conv_2_bn_normal_left5_10", 0, 0, {}], ["normal_bn_1_10", 0, 0, {}]]]}, {"name": "normal_concat_10", "class_name": "Concatenate", "config": {"name": "normal_concat_10", "trainable": true, "axis": -1}, "inbound_nodes": [[["adjust_bn_10", 0, 0, {}], ["normal_add_1_10", 0, 0, {}], ["normal_add_2_10", 0, 0, {}], ["normal_add_3_10", 0, 0, {}], ["normal_add_4_10", 0, 0, {}], ["normal_add_5_10", 0, 0, {}]]]}, {"name": "activation_424", "class_name": "Activation", "config": {"name": "activation_424", "trainable": true, "activation": "relu"}, "inbound_nodes": [[["normal_concat_9", 0, 0, {}]]]}, {"name": "activation_425", "class_name": "Activation", "config": {"name": "activation_425", "trainable": true, "activation": "relu"}, "inbound_nodes": [[["normal_concat_10", 0, 0, {}]]]}, {"name": "adjust_conv_projection_11", "class_name": "Conv2D", "config": {"name": "adjust_conv_projection_11", "trainable": true, "filters": 176, "kernel_size": [1, 1], "strides": [1, 1], "padding": "same", "data_format": "channels_last", "dilation_rate": [1, 1], "activation": "linear", "use_bias": false, "kernel_initializer": {"class_name": "VarianceScaling", "config": {"scale": 2.0, "mode": "fan_in", "distribution": "normal", "seed": null}}, "bias_initializer": {"class_name": "Zeros", "config": {}}, "kernel_regularizer": null, "bias_regularizer": null, "activity_regularizer": null, "kernel_constraint": null, "bias_constraint": null}, "inbound_nodes": [[["activation_424", 0, 0, {}]]]}, {"name": "normal_conv_1_11", "class_name": "Conv2D", "config": {"name": "normal_conv_1_11", "trainable": true, "filters": 176, "kernel_size": [1, 1], "strides": [1, 1], "padding": "same", "data_format": "channels_last", "dilation_rate": [1, 1], "activation": "linear", "use_bias": false, "kernel_initializer": {"class_name": "VarianceScaling", "config": {"scale": 2.0, "mode": "fan_in", "distribution": "normal", "seed": null}}, "bias_initializer": {"class_name": "Zeros", "config": {}}, "kernel_regularizer": null, "bias_regularizer": null, "activity_regularizer": null, "kernel_constraint": null, "bias_constraint": null}, "inbound_nodes": [[["activation_425", 0, 0, {}]]]}, {"name": "adjust_bn_11", "class_name": "BatchNormalization", "config": {"name": "adjust_bn_11", "trainable": true, "axis": -1, "momentum": 0.9997, "epsilon": 0.001, "center": true, "scale": true, "beta_initializer": {"class_name": "Zeros", "config": {}}, "gamma_initializer": {"class_name": "Ones", "config": {}}, "moving_mean_initializer": {"class_name": "Zeros", "config": {}}, "moving_variance_initializer": {"class_name": "Ones", "config": {}}, "beta_regularizer": null, "gamma_regularizer": null, "beta_constraint": null, "gamma_constraint": null}, "inbound_nodes": [[["adjust_conv_projection_11", 0, 0, {}]]]}, {"name": "normal_bn_1_11", "class_name": "BatchNormalization", "config": {"name": "normal_bn_1_11", "trainable": true, "axis": -1, "momentum": 0.9997, "epsilon": 0.001, "center": true, "scale": true, "beta_initializer": {"class_name": "Zeros", "config": {}}, "gamma_initializer": {"class_name": "Ones", "config": {}}, "moving_mean_initializer": {"class_name": "Zeros", "config": {}}, "moving_variance_initializer": {"class_name": "Ones", "config": {}}, "beta_regularizer": null, "gamma_regularizer": null, "beta_constraint": null, "gamma_constraint": null}, "inbound_nodes": [[["normal_conv_1_11", 0, 0, {}]]]}, {"name": "activation_426", "class_name": "Activation", "config": {"name": "activation_426", "trainable": true, "activation": "relu"}, "inbound_nodes": [[["normal_bn_1_11", 0, 0, {}]]]}, {"name": "activation_428", "class_name": "Activation", "config": {"name": "activation_428", "trainable": true, "activation": "relu"}, "inbound_nodes": [[["adjust_bn_11", 0, 0, {}]]]}, {"name": "activation_430", "class_name": "Activation", "config": {"name": "activation_430", "trainable": true, "activation": "relu"}, "inbound_nodes": [[["adjust_bn_11", 0, 0, {}]]]}, {"name": "activation_432", "class_name": "Activation", "config": {"name": "activation_432", "trainable": true, "activation": "relu"}, "inbound_nodes": [[["adjust_bn_11", 0, 0, {}]]]}, {"name": "activation_434", "class_name": "Activation", "config": {"name": "activation_434", "trainable": true, "activation": "relu"}, "inbound_nodes": [[["normal_bn_1_11", 0, 0, {}]]]}, {"name": "separable_conv_1_normal_left1_11", "class_name": "SeparableConv2D", "config": {"name": "separable_conv_1_normal_left1_11", "trainable": true, "filters": 176, "kernel_size": [5, 5], "strides": [1, 1], "padding": "same", "data_format": "channels_last", "dilation_rate": [1, 1], "activation": "linear", "use_bias": false, "bias_initializer": {"class_name": "Zeros", "config": {}}, "bias_regularizer": null, "activity_regularizer": null, "bias_constraint": null, "depth_multiplier": 1, "depthwise_initializer": {"class_name": "VarianceScaling", "config": {"scale": 1.0, "mode": "fan_avg", "distribution": "uniform", "seed": null}}, "pointwise_initializer": {"class_name": "VarianceScaling", "config": {"scale": 1.0, "mode": "fan_avg", "distribution": "uniform", "seed": null}}, "depthwise_regularizer": null, "pointwise_regularizer": null, "depthwise_constraint": null, "pointwise_constraint": null}, "inbound_nodes": [[["activation_426", 0, 0, {}]]]}, {"name": "separable_conv_1_normal_right1_11", "class_name": "SeparableConv2D", "config": {"name": "separable_conv_1_normal_right1_11", "trainable": true, "filters": 176, "kernel_size": [3, 3], "strides": [1, 1], "padding": "same", "data_format": "channels_last", "dilation_rate": [1, 1], "activation": "linear", "use_bias": false, "bias_initializer": {"class_name": "Zeros", "config": {}}, "bias_regularizer": null, "activity_regularizer": null, "bias_constraint": null, "depth_multiplier": 1, "depthwise_initializer": {"class_name": "VarianceScaling", "config": {"scale": 1.0, "mode": "fan_avg", "distribution": "uniform", "seed": null}}, "pointwise_initializer": {"class_name": "VarianceScaling", "config": {"scale": 1.0, "mode": "fan_avg", "distribution": "uniform", "seed": null}}, "depthwise_regularizer": null, "pointwise_regularizer": null, "depthwise_constraint": null, "pointwise_constraint": null}, "inbound_nodes": [[["activation_428", 0, 0, {}]]]}, {"name": "separable_conv_1_normal_left2_11", "class_name": "SeparableConv2D", "config": {"name": "separable_conv_1_normal_left2_11", "trainable": true, "filters": 176, "kernel_size": [5, 5], "strides": [1, 1], "padding": "same", "data_format": "channels_last", "dilation_rate": [1, 1], "activation": "linear", "use_bias": false, "bias_initializer": {"class_name": "Zeros", "config": {}}, "bias_regularizer": null, "activity_regularizer": null, "bias_constraint": null, "depth_multiplier": 1, "depthwise_initializer": {"class_name": "VarianceScaling", "config": {"scale": 1.0, "mode": "fan_avg", "distribution": "uniform", "seed": null}}, "pointwise_initializer": {"class_name": "VarianceScaling", "config": {"scale": 1.0, "mode": "fan_avg", "distribution": "uniform", "seed": null}}, "depthwise_regularizer": null, "pointwise_regularizer": null, "depthwise_constraint": null, "pointwise_constraint": null}, "inbound_nodes": [[["activation_430", 0, 0, {}]]]}, {"name": "separable_conv_1_normal_right2_11", "class_name": "SeparableConv2D", "config": {"name": "separable_conv_1_normal_right2_11", "trainable": true, "filters": 176, "kernel_size": [3, 3], "strides": [1, 1], "padding": "same", "data_format": "channels_last", "dilation_rate": [1, 1], "activation": "linear", "use_bias": false, "bias_initializer": {"class_name": "Zeros", "config": {}}, "bias_regularizer": null, "activity_regularizer": null, "bias_constraint": null, "depth_multiplier": 1, "depthwise_initializer": {"class_name": "VarianceScaling", "config": {"scale": 1.0, "mode": "fan_avg", "distribution": "uniform", "seed": null}}, "pointwise_initializer": {"class_name": "VarianceScaling", "config": {"scale": 1.0, "mode": "fan_avg", "distribution": "uniform", "seed": null}}, "depthwise_regularizer": null, "pointwise_regularizer": null, "depthwise_constraint": null, "pointwise_constraint": null}, "inbound_nodes": [[["activation_432", 0, 0, {}]]]}, {"name": "separable_conv_1_normal_left5_11", "class_name": "SeparableConv2D", "config": {"name": "separable_conv_1_normal_left5_11", "trainable": true, "filters": 176, "kernel_size": [3, 3], "strides": [1, 1], "padding": "same", "data_format": "channels_last", "dilation_rate": [1, 1], "activation": "linear", "use_bias": false, "bias_initializer": {"class_name": "Zeros", "config": {}}, "bias_regularizer": null, "activity_regularizer": null, "bias_constraint": null, "depth_multiplier": 1, "depthwise_initializer": {"class_name": "VarianceScaling", "config": {"scale": 1.0, "mode": "fan_avg", "distribution": "uniform", "seed": null}}, "pointwise_initializer": {"class_name": "VarianceScaling", "config": {"scale": 1.0, "mode": "fan_avg", "distribution": "uniform", "seed": null}}, "depthwise_regularizer": null, "pointwise_regularizer": null, "depthwise_constraint": null, "pointwise_constraint": null}, "inbound_nodes": [[["activation_434", 0, 0, {}]]]}, {"name": "separable_conv_1_bn_normal_left1_11", "class_name": "BatchNormalization", "config": {"name": "separable_conv_1_bn_normal_left1_11", "trainable": true, "axis": -1, "momentum": 0.9997, "epsilon": 0.001, "center": true, "scale": true, "beta_initializer": {"class_name": "Zeros", "config": {}}, "gamma_initializer": {"class_name": "Ones", "config": {}}, "moving_mean_initializer": {"class_name": "Zeros", "config": {}}, "moving_variance_initializer": {"class_name": "Ones", "config": {}}, "beta_regularizer": null, "gamma_regularizer": null, "beta_constraint": null, "gamma_constraint": null}, "inbound_nodes": [[["separable_conv_1_normal_left1_11", 0, 0, {}]]]}, {"name": "separable_conv_1_bn_normal_right1_11", "class_name": "BatchNormalization", "config": {"name": "separable_conv_1_bn_normal_right1_11", "trainable": true, "axis": -1, "momentum": 0.9997, "epsilon": 0.001, "center": true, "scale": true, "beta_initializer": {"class_name": "Zeros", "config": {}}, "gamma_initializer": {"class_name": "Ones", "config": {}}, "moving_mean_initializer": {"class_name": "Zeros", "config": {}}, "moving_variance_initializer": {"class_name": "Ones", "config": {}}, "beta_regularizer": null, "gamma_regularizer": null, "beta_constraint": null, "gamma_constraint": null}, "inbound_nodes": [[["separable_conv_1_normal_right1_11", 0, 0, {}]]]}, {"name": "separable_conv_1_bn_normal_left2_11", "class_name": "BatchNormalization", "config": {"name": "separable_conv_1_bn_normal_left2_11", "trainable": true, "axis": -1, "momentum": 0.9997, "epsilon": 0.001, "center": true, "scale": true, "beta_initializer": {"class_name": "Zeros", "config": {}}, "gamma_initializer": {"class_name": "Ones", "config": {}}, "moving_mean_initializer": {"class_name": "Zeros", "config": {}}, "moving_variance_initializer": {"class_name": "Ones", "config": {}}, "beta_regularizer": null, "gamma_regularizer": null, "beta_constraint": null, "gamma_constraint": null}, "inbound_nodes": [[["separable_conv_1_normal_left2_11", 0, 0, {}]]]}, {"name": "separable_conv_1_bn_normal_right2_11", "class_name": "BatchNormalization", "config": {"name": "separable_conv_1_bn_normal_right2_11", "trainable": true, "axis": -1, "momentum": 0.9997, "epsilon": 0.001, "center": true, "scale": true, "beta_initializer": {"class_name": "Zeros", "config": {}}, "gamma_initializer": {"class_name": "Ones", "config": {}}, "moving_mean_initializer": {"class_name": "Zeros", "config": {}}, "moving_variance_initializer": {"class_name": "Ones", "config": {}}, "beta_regularizer": null, "gamma_regularizer": null, "beta_constraint": null, "gamma_constraint": null}, "inbound_nodes": [[["separable_conv_1_normal_right2_11", 0, 0, {}]]]}, {"name": "separable_conv_1_bn_normal_left5_11", "class_name": "BatchNormalization", "config": {"name": "separable_conv_1_bn_normal_left5_11", "trainable": true, "axis": -1, "momentum": 0.9997, "epsilon": 0.001, "center": true, "scale": true, "beta_initializer": {"class_name": "Zeros", "config": {}}, "gamma_initializer": {"class_name": "Ones", "config": {}}, "moving_mean_initializer": {"class_name": "Zeros", "config": {}}, "moving_variance_initializer": {"class_name": "Ones", "config": {}}, "beta_regularizer": null, "gamma_regularizer": null, "beta_constraint": null, "gamma_constraint": null}, "inbound_nodes": [[["separable_conv_1_normal_left5_11", 0, 0, {}]]]}, {"name": "activation_427", "class_name": "Activation", "config": {"name": "activation_427", "trainable": true, "activation": "relu"}, "inbound_nodes": [[["separable_conv_1_bn_normal_left1_11", 0, 0, {}]]]}, {"name": "activation_429", "class_name": "Activation", "config": {"name": "activation_429", "trainable": true, "activation": "relu"}, "inbound_nodes": [[["separable_conv_1_bn_normal_right1_11", 0, 0, {}]]]}, {"name": "activation_431", "class_name": "Activation", "config": {"name": "activation_431", "trainable": true, "activation": "relu"}, "inbound_nodes": [[["separable_conv_1_bn_normal_left2_11", 0, 0, {}]]]}, {"name": "activation_433", "class_name": "Activation", "config": {"name": "activation_433", "trainable": true, "activation": "relu"}, "inbound_nodes": [[["separable_conv_1_bn_normal_right2_11", 0, 0, {}]]]}, {"name": "activation_435", "class_name": "Activation", "config": {"name": "activation_435", "trainable": true, "activation": "relu"}, "inbound_nodes": [[["separable_conv_1_bn_normal_left5_11", 0, 0, {}]]]}, {"name": "separable_conv_2_normal_left1_11", "class_name": "SeparableConv2D", "config": {"name": "separable_conv_2_normal_left1_11", "trainable": true, "filters": 176, "kernel_size": [5, 5], "strides": [1, 1], "padding": "same", "data_format": "channels_last", "dilation_rate": [1, 1], "activation": "linear", "use_bias": false, "bias_initializer": {"class_name": "Zeros", "config": {}}, "bias_regularizer": null, "activity_regularizer": null, "bias_constraint": null, "depth_multiplier": 1, "depthwise_initializer": {"class_name": "VarianceScaling", "config": {"scale": 1.0, "mode": "fan_avg", "distribution": "uniform", "seed": null}}, "pointwise_initializer": {"class_name": "VarianceScaling", "config": {"scale": 1.0, "mode": "fan_avg", "distribution": "uniform", "seed": null}}, "depthwise_regularizer": null, "pointwise_regularizer": null, "depthwise_constraint": null, "pointwise_constraint": null}, "inbound_nodes": [[["activation_427", 0, 0, {}]]]}, {"name": "separable_conv_2_normal_right1_11", "class_name": "SeparableConv2D", "config": {"name": "separable_conv_2_normal_right1_11", "trainable": true, "filters": 176, "kernel_size": [3, 3], "strides": [1, 1], "padding": "same", "data_format": "channels_last", "dilation_rate": [1, 1], "activation": "linear", "use_bias": false, "bias_initializer": {"class_name": "Zeros", "config": {}}, "bias_regularizer": null, "activity_regularizer": null, "bias_constraint": null, "depth_multiplier": 1, "depthwise_initializer": {"class_name": "VarianceScaling", "config": {"scale": 1.0, "mode": "fan_avg", "distribution": "uniform", "seed": null}}, "pointwise_initializer": {"class_name": "VarianceScaling", "config": {"scale": 1.0, "mode": "fan_avg", "distribution": "uniform", "seed": null}}, "depthwise_regularizer": null, "pointwise_regularizer": null, "depthwise_constraint": null, "pointwise_constraint": null}, "inbound_nodes": [[["activation_429", 0, 0, {}]]]}, {"name": "separable_conv_2_normal_left2_11", "class_name": "SeparableConv2D", "config": {"name": "separable_conv_2_normal_left2_11", "trainable": true, "filters": 176, "kernel_size": [5, 5], "strides": [1, 1], "padding": "same", "data_format": "channels_last", "dilation_rate": [1, 1], "activation": "linear", "use_bias": false, "bias_initializer": {"class_name": "Zeros", "config": {}}, "bias_regularizer": null, "activity_regularizer": null, "bias_constraint": null, "depth_multiplier": 1, "depthwise_initializer": {"class_name": "VarianceScaling", "config": {"scale": 1.0, "mode": "fan_avg", "distribution": "uniform", "seed": null}}, "pointwise_initializer": {"class_name": "VarianceScaling", "config": {"scale": 1.0, "mode": "fan_avg", "distribution": "uniform", "seed": null}}, "depthwise_regularizer": null, "pointwise_regularizer": null, "depthwise_constraint": null, "pointwise_constraint": null}, "inbound_nodes": [[["activation_431", 0, 0, {}]]]}, {"name": "separable_conv_2_normal_right2_11", "class_name": "SeparableConv2D", "config": {"name": "separable_conv_2_normal_right2_11", "trainable": true, "filters": 176, "kernel_size": [3, 3], "strides": [1, 1], "padding": "same", "data_format": "channels_last", "dilation_rate": [1, 1], "activation": "linear", "use_bias": false, "bias_initializer": {"class_name": "Zeros", "config": {}}, "bias_regularizer": null, "activity_regularizer": null, "bias_constraint": null, "depth_multiplier": 1, "depthwise_initializer": {"class_name": "VarianceScaling", "config": {"scale": 1.0, "mode": "fan_avg", "distribution": "uniform", "seed": null}}, "pointwise_initializer": {"class_name": "VarianceScaling", "config": {"scale": 1.0, "mode": "fan_avg", "distribution": "uniform", "seed": null}}, "depthwise_regularizer": null, "pointwise_regularizer": null, "depthwise_constraint": null, "pointwise_constraint": null}, "inbound_nodes": [[["activation_433", 0, 0, {}]]]}, {"name": "separable_conv_2_normal_left5_11", "class_name": "SeparableConv2D", "config": {"name": "separable_conv_2_normal_left5_11", "trainable": true, "filters": 176, "kernel_size": [3, 3], "strides": [1, 1], "padding": "same", "data_format": "channels_last", "dilation_rate": [1, 1], "activation": "linear", "use_bias": false, "bias_initializer": {"class_name": "Zeros", "config": {}}, "bias_regularizer": null, "activity_regularizer": null, "bias_constraint": null, "depth_multiplier": 1, "depthwise_initializer": {"class_name": "VarianceScaling", "config": {"scale": 1.0, "mode": "fan_avg", "distribution": "uniform", "seed": null}}, "pointwise_initializer": {"class_name": "VarianceScaling", "config": {"scale": 1.0, "mode": "fan_avg", "distribution": "uniform", "seed": null}}, "depthwise_regularizer": null, "pointwise_regularizer": null, "depthwise_constraint": null, "pointwise_constraint": null}, "inbound_nodes": [[["activation_435", 0, 0, {}]]]}, {"name": "separable_conv_2_bn_normal_left1_11", "class_name": "BatchNormalization", "config": {"name": "separable_conv_2_bn_normal_left1_11", "trainable": true, "axis": -1, "momentum": 0.9997, "epsilon": 0.001, "center": true, "scale": true, "beta_initializer": {"class_name": "Zeros", "config": {}}, "gamma_initializer": {"class_name": "Ones", "config": {}}, "moving_mean_initializer": {"class_name": "Zeros", "config": {}}, "moving_variance_initializer": {"class_name": "Ones", "config": {}}, "beta_regularizer": null, "gamma_regularizer": null, "beta_constraint": null, "gamma_constraint": null}, "inbound_nodes": [[["separable_conv_2_normal_left1_11", 0, 0, {}]]]}, {"name": "separable_conv_2_bn_normal_right1_11", "class_name": "BatchNormalization", "config": {"name": "separable_conv_2_bn_normal_right1_11", "trainable": true, "axis": -1, "momentum": 0.9997, "epsilon": 0.001, "center": true, "scale": true, "beta_initializer": {"class_name": "Zeros", "config": {}}, "gamma_initializer": {"class_name": "Ones", "config": {}}, "moving_mean_initializer": {"class_name": "Zeros", "config": {}}, "moving_variance_initializer": {"class_name": "Ones", "config": {}}, "beta_regularizer": null, "gamma_regularizer": null, "beta_constraint": null, "gamma_constraint": null}, "inbound_nodes": [[["separable_conv_2_normal_right1_11", 0, 0, {}]]]}, {"name": "separable_conv_2_bn_normal_left2_11", "class_name": "BatchNormalization", "config": {"name": "separable_conv_2_bn_normal_left2_11", "trainable": true, "axis": -1, "momentum": 0.9997, "epsilon": 0.001, "center": true, "scale": true, "beta_initializer": {"class_name": "Zeros", "config": {}}, "gamma_initializer": {"class_name": "Ones", "config": {}}, "moving_mean_initializer": {"class_name": "Zeros", "config": {}}, "moving_variance_initializer": {"class_name": "Ones", "config": {}}, "beta_regularizer": null, "gamma_regularizer": null, "beta_constraint": null, "gamma_constraint": null}, "inbound_nodes": [[["separable_conv_2_normal_left2_11", 0, 0, {}]]]}, {"name": "separable_conv_2_bn_normal_right2_11", "class_name": "BatchNormalization", "config": {"name": "separable_conv_2_bn_normal_right2_11", "trainable": true, "axis": -1, "momentum": 0.9997, "epsilon": 0.001, "center": true, "scale": true, "beta_initializer": {"class_name": "Zeros", "config": {}}, "gamma_initializer": {"class_name": "Ones", "config": {}}, "moving_mean_initializer": {"class_name": "Zeros", "config": {}}, "moving_variance_initializer": {"class_name": "Ones", "config": {}}, "beta_regularizer": null, "gamma_regularizer": null, "beta_constraint": null, "gamma_constraint": null}, "inbound_nodes": [[["separable_conv_2_normal_right2_11", 0, 0, {}]]]}, {"name": "normal_left3_11", "class_name": "AveragePooling2D", "config": {"name": "normal_left3_11", "trainable": true, "pool_size": [3, 3], "padding": "same", "strides": [1, 1], "data_format": "channels_last"}, "inbound_nodes": [[["normal_bn_1_11", 0, 0, {}]]]}, {"name": "normal_left4_11", "class_name": "AveragePooling2D", "config": {"name": "normal_left4_11", "trainable": true, "pool_size": [3, 3], "padding": "same", "strides": [1, 1], "data_format": "channels_last"}, "inbound_nodes": [[["adjust_bn_11", 0, 0, {}]]]}, {"name": "normal_right4_11", "class_name": "AveragePooling2D", "config": {"name": "normal_right4_11", "trainable": true, "pool_size": [3, 3], "padding": "same", "strides": [1, 1], "data_format": "channels_last"}, "inbound_nodes": [[["adjust_bn_11", 0, 0, {}]]]}, {"name": "separable_conv_2_bn_normal_left5_11", "class_name": "BatchNormalization", "config": {"name": "separable_conv_2_bn_normal_left5_11", "trainable": true, "axis": -1, "momentum": 0.9997, "epsilon": 0.001, "center": true, "scale": true, "beta_initializer": {"class_name": "Zeros", "config": {}}, "gamma_initializer": {"class_name": "Ones", "config": {}}, "moving_mean_initializer": {"class_name": "Zeros", "config": {}}, "moving_variance_initializer": {"class_name": "Ones", "config": {}}, "beta_regularizer": null, "gamma_regularizer": null, "beta_constraint": null, "gamma_constraint": null}, "inbound_nodes": [[["separable_conv_2_normal_left5_11", 0, 0, {}]]]}, {"name": "normal_add_1_11", "class_name": "Add", "config": {"name": "normal_add_1_11", "trainable": true}, "inbound_nodes": [[["separable_conv_2_bn_normal_left1_11", 0, 0, {}], ["separable_conv_2_bn_normal_right1_11", 0, 0, {}]]]}, {"name": "normal_add_2_11", "class_name": "Add", "config": {"name": "normal_add_2_11", "trainable": true}, "inbound_nodes": [[["separable_conv_2_bn_normal_left2_11", 0, 0, {}], ["separable_conv_2_bn_normal_right2_11", 0, 0, {}]]]}, {"name": "normal_add_3_11", "class_name": "Add", "config": {"name": "normal_add_3_11", "trainable": true}, "inbound_nodes": [[["normal_left3_11", 0, 0, {}], ["adjust_bn_11", 0, 0, {}]]]}, {"name": "normal_add_4_11", "class_name": "Add", "config": {"name": "normal_add_4_11", "trainable": true}, "inbound_nodes": [[["normal_left4_11", 0, 0, {}], ["normal_right4_11", 0, 0, {}]]]}, {"name": "normal_add_5_11", "class_name": "Add", "config": {"name": "normal_add_5_11", "trainable": true}, "inbound_nodes": [[["separable_conv_2_bn_normal_left5_11", 0, 0, {}], ["normal_bn_1_11", 0, 0, {}]]]}, {"name": "normal_concat_11", "class_name": "Concatenate", "config": {"name": "normal_concat_11", "trainable": true, "axis": -1}, "inbound_nodes": [[["adjust_bn_11", 0, 0, {}], ["normal_add_1_11", 0, 0, {}], ["normal_add_2_11", 0, 0, {}], ["normal_add_3_11", 0, 0, {}], ["normal_add_4_11", 0, 0, {}], ["normal_add_5_11", 0, 0, {}]]]}, {"name": "activation_436", "class_name": "Activation", "config": {"name": "activation_436", "trainable": true, "activation": "relu"}, "inbound_nodes": [[["normal_concat_10", 0, 0, {}]]]}, {"name": "activation_437", "class_name": "Activation", "config": {"name": "activation_437", "trainable": true, "activation": "relu"}, "inbound_nodes": [[["normal_concat_11", 0, 0, {}]]]}, {"name": "adjust_conv_projection_12", "class_name": "Conv2D", "config": {"name": "adjust_conv_projection_12", "trainable": true, "filters": 176, "kernel_size": [1, 1], "strides": [1, 1], "padding": "same", "data_format": "channels_last", "dilation_rate": [1, 1], "activation": "linear", "use_bias": false, "kernel_initializer": {"class_name": "VarianceScaling", "config": {"scale": 2.0, "mode": "fan_in", "distribution": "normal", "seed": null}}, "bias_initializer": {"class_name": "Zeros", "config": {}}, "kernel_regularizer": null, "bias_regularizer": null, "activity_regularizer": null, "kernel_constraint": null, "bias_constraint": null}, "inbound_nodes": [[["activation_436", 0, 0, {}]]]}, {"name": "normal_conv_1_12", "class_name": "Conv2D", "config": {"name": "normal_conv_1_12", "trainable": true, "filters": 176, "kernel_size": [1, 1], "strides": [1, 1], "padding": "same", "data_format": "channels_last", "dilation_rate": [1, 1], "activation": "linear", "use_bias": false, "kernel_initializer": {"class_name": "VarianceScaling", "config": {"scale": 2.0, "mode": "fan_in", "distribution": "normal", "seed": null}}, "bias_initializer": {"class_name": "Zeros", "config": {}}, "kernel_regularizer": null, "bias_regularizer": null, "activity_regularizer": null, "kernel_constraint": null, "bias_constraint": null}, "inbound_nodes": [[["activation_437", 0, 0, {}]]]}, {"name": "adjust_bn_12", "class_name": "BatchNormalization", "config": {"name": "adjust_bn_12", "trainable": true, "axis": -1, "momentum": 0.9997, "epsilon": 0.001, "center": true, "scale": true, "beta_initializer": {"class_name": "Zeros", "config": {}}, "gamma_initializer": {"class_name": "Ones", "config": {}}, "moving_mean_initializer": {"class_name": "Zeros", "config": {}}, "moving_variance_initializer": {"class_name": "Ones", "config": {}}, "beta_regularizer": null, "gamma_regularizer": null, "beta_constraint": null, "gamma_constraint": null}, "inbound_nodes": [[["adjust_conv_projection_12", 0, 0, {}]]]}, {"name": "normal_bn_1_12", "class_name": "BatchNormalization", "config": {"name": "normal_bn_1_12", "trainable": true, "axis": -1, "momentum": 0.9997, "epsilon": 0.001, "center": true, "scale": true, "beta_initializer": {"class_name": "Zeros", "config": {}}, "gamma_initializer": {"class_name": "Ones", "config": {}}, "moving_mean_initializer": {"class_name": "Zeros", "config": {}}, "moving_variance_initializer": {"class_name": "Ones", "config": {}}, "beta_regularizer": null, "gamma_regularizer": null, "beta_constraint": null, "gamma_constraint": null}, "inbound_nodes": [[["normal_conv_1_12", 0, 0, {}]]]}, {"name": "activation_438", "class_name": "Activation", "config": {"name": "activation_438", "trainable": true, "activation": "relu"}, "inbound_nodes": [[["normal_bn_1_12", 0, 0, {}]]]}, {"name": "activation_440", "class_name": "Activation", "config": {"name": "activation_440", "trainable": true, "activation": "relu"}, "inbound_nodes": [[["adjust_bn_12", 0, 0, {}]]]}, {"name": "activation_442", "class_name": "Activation", "config": {"name": "activation_442", "trainable": true, "activation": "relu"}, "inbound_nodes": [[["adjust_bn_12", 0, 0, {}]]]}, {"name": "activation_444", "class_name": "Activation", "config": {"name": "activation_444", "trainable": true, "activation": "relu"}, "inbound_nodes": [[["adjust_bn_12", 0, 0, {}]]]}, {"name": "activation_446", "class_name": "Activation", "config": {"name": "activation_446", "trainable": true, "activation": "relu"}, "inbound_nodes": [[["normal_bn_1_12", 0, 0, {}]]]}, {"name": "separable_conv_1_normal_left1_12", "class_name": "SeparableConv2D", "config": {"name": "separable_conv_1_normal_left1_12", "trainable": true, "filters": 176, "kernel_size": [5, 5], "strides": [1, 1], "padding": "same", "data_format": "channels_last", "dilation_rate": [1, 1], "activation": "linear", "use_bias": false, "bias_initializer": {"class_name": "Zeros", "config": {}}, "bias_regularizer": null, "activity_regularizer": null, "bias_constraint": null, "depth_multiplier": 1, "depthwise_initializer": {"class_name": "VarianceScaling", "config": {"scale": 1.0, "mode": "fan_avg", "distribution": "uniform", "seed": null}}, "pointwise_initializer": {"class_name": "VarianceScaling", "config": {"scale": 1.0, "mode": "fan_avg", "distribution": "uniform", "seed": null}}, "depthwise_regularizer": null, "pointwise_regularizer": null, "depthwise_constraint": null, "pointwise_constraint": null}, "inbound_nodes": [[["activation_438", 0, 0, {}]]]}, {"name": "separable_conv_1_normal_right1_12", "class_name": "SeparableConv2D", "config": {"name": "separable_conv_1_normal_right1_12", "trainable": true, "filters": 176, "kernel_size": [3, 3], "strides": [1, 1], "padding": "same", "data_format": "channels_last", "dilation_rate": [1, 1], "activation": "linear", "use_bias": false, "bias_initializer": {"class_name": "Zeros", "config": {}}, "bias_regularizer": null, "activity_regularizer": null, "bias_constraint": null, "depth_multiplier": 1, "depthwise_initializer": {"class_name": "VarianceScaling", "config": {"scale": 1.0, "mode": "fan_avg", "distribution": "uniform", "seed": null}}, "pointwise_initializer": {"class_name": "VarianceScaling", "config": {"scale": 1.0, "mode": "fan_avg", "distribution": "uniform", "seed": null}}, "depthwise_regularizer": null, "pointwise_regularizer": null, "depthwise_constraint": null, "pointwise_constraint": null}, "inbound_nodes": [[["activation_440", 0, 0, {}]]]}, {"name": "separable_conv_1_normal_left2_12", "class_name": "SeparableConv2D", "config": {"name": "separable_conv_1_normal_left2_12", "trainable": true, "filters": 176, "kernel_size": [5, 5], "strides": [1, 1], "padding": "same", "data_format": "channels_last", "dilation_rate": [1, 1], "activation": "linear", "use_bias": false, "bias_initializer": {"class_name": "Zeros", "config": {}}, "bias_regularizer": null, "activity_regularizer": null, "bias_constraint": null, "depth_multiplier": 1, "depthwise_initializer": {"class_name": "VarianceScaling", "config": {"scale": 1.0, "mode": "fan_avg", "distribution": "uniform", "seed": null}}, "pointwise_initializer": {"class_name": "VarianceScaling", "config": {"scale": 1.0, "mode": "fan_avg", "distribution": "uniform", "seed": null}}, "depthwise_regularizer": null, "pointwise_regularizer": null, "depthwise_constraint": null, "pointwise_constraint": null}, "inbound_nodes": [[["activation_442", 0, 0, {}]]]}, {"name": "separable_conv_1_normal_right2_12", "class_name": "SeparableConv2D", "config": {"name": "separable_conv_1_normal_right2_12", "trainable": true, "filters": 176, "kernel_size": [3, 3], "strides": [1, 1], "padding": "same", "data_format": "channels_last", "dilation_rate": [1, 1], "activation": "linear", "use_bias": false, "bias_initializer": {"class_name": "Zeros", "config": {}}, "bias_regularizer": null, "activity_regularizer": null, "bias_constraint": null, "depth_multiplier": 1, "depthwise_initializer": {"class_name": "VarianceScaling", "config": {"scale": 1.0, "mode": "fan_avg", "distribution": "uniform", "seed": null}}, "pointwise_initializer": {"class_name": "VarianceScaling", "config": {"scale": 1.0, "mode": "fan_avg", "distribution": "uniform", "seed": null}}, "depthwise_regularizer": null, "pointwise_regularizer": null, "depthwise_constraint": null, "pointwise_constraint": null}, "inbound_nodes": [[["activation_444", 0, 0, {}]]]}, {"name": "separable_conv_1_normal_left5_12", "class_name": "SeparableConv2D", "config": {"name": "separable_conv_1_normal_left5_12", "trainable": true, "filters": 176, "kernel_size": [3, 3], "strides": [1, 1], "padding": "same", "data_format": "channels_last", "dilation_rate": [1, 1], "activation": "linear", "use_bias": false, "bias_initializer": {"class_name": "Zeros", "config": {}}, "bias_regularizer": null, "activity_regularizer": null, "bias_constraint": null, "depth_multiplier": 1, "depthwise_initializer": {"class_name": "VarianceScaling", "config": {"scale": 1.0, "mode": "fan_avg", "distribution": "uniform", "seed": null}}, "pointwise_initializer": {"class_name": "VarianceScaling", "config": {"scale": 1.0, "mode": "fan_avg", "distribution": "uniform", "seed": null}}, "depthwise_regularizer": null, "pointwise_regularizer": null, "depthwise_constraint": null, "pointwise_constraint": null}, "inbound_nodes": [[["activation_446", 0, 0, {}]]]}, {"name": "separable_conv_1_bn_normal_left1_12", "class_name": "BatchNormalization", "config": {"name": "separable_conv_1_bn_normal_left1_12", "trainable": true, "axis": -1, "momentum": 0.9997, "epsilon": 0.001, "center": true, "scale": true, "beta_initializer": {"class_name": "Zeros", "config": {}}, "gamma_initializer": {"class_name": "Ones", "config": {}}, "moving_mean_initializer": {"class_name": "Zeros", "config": {}}, "moving_variance_initializer": {"class_name": "Ones", "config": {}}, "beta_regularizer": null, "gamma_regularizer": null, "beta_constraint": null, "gamma_constraint": null}, "inbound_nodes": [[["separable_conv_1_normal_left1_12", 0, 0, {}]]]}, {"name": "separable_conv_1_bn_normal_right1_12", "class_name": "BatchNormalization", "config": {"name": "separable_conv_1_bn_normal_right1_12", "trainable": true, "axis": -1, "momentum": 0.9997, "epsilon": 0.001, "center": true, "scale": true, "beta_initializer": {"class_name": "Zeros", "config": {}}, "gamma_initializer": {"class_name": "Ones", "config": {}}, "moving_mean_initializer": {"class_name": "Zeros", "config": {}}, "moving_variance_initializer": {"class_name": "Ones", "config": {}}, "beta_regularizer": null, "gamma_regularizer": null, "beta_constraint": null, "gamma_constraint": null}, "inbound_nodes": [[["separable_conv_1_normal_right1_12", 0, 0, {}]]]}, {"name": "separable_conv_1_bn_normal_left2_12", "class_name": "BatchNormalization", "config": {"name": "separable_conv_1_bn_normal_left2_12", "trainable": true, "axis": -1, "momentum": 0.9997, "epsilon": 0.001, "center": true, "scale": true, "beta_initializer": {"class_name": "Zeros", "config": {}}, "gamma_initializer": {"class_name": "Ones", "config": {}}, "moving_mean_initializer": {"class_name": "Zeros", "config": {}}, "moving_variance_initializer": {"class_name": "Ones", "config": {}}, "beta_regularizer": null, "gamma_regularizer": null, "beta_constraint": null, "gamma_constraint": null}, "inbound_nodes": [[["separable_conv_1_normal_left2_12", 0, 0, {}]]]}, {"name": "separable_conv_1_bn_normal_right2_12", "class_name": "BatchNormalization", "config": {"name": "separable_conv_1_bn_normal_right2_12", "trainable": true, "axis": -1, "momentum": 0.9997, "epsilon": 0.001, "center": true, "scale": true, "beta_initializer": {"class_name": "Zeros", "config": {}}, "gamma_initializer": {"class_name": "Ones", "config": {}}, "moving_mean_initializer": {"class_name": "Zeros", "config": {}}, "moving_variance_initializer": {"class_name": "Ones", "config": {}}, "beta_regularizer": null, "gamma_regularizer": null, "beta_constraint": null, "gamma_constraint": null}, "inbound_nodes": [[["separable_conv_1_normal_right2_12", 0, 0, {}]]]}, {"name": "separable_conv_1_bn_normal_left5_12", "class_name": "BatchNormalization", "config": {"name": "separable_conv_1_bn_normal_left5_12", "trainable": true, "axis": -1, "momentum": 0.9997, "epsilon": 0.001, "center": true, "scale": true, "beta_initializer": {"class_name": "Zeros", "config": {}}, "gamma_initializer": {"class_name": "Ones", "config": {}}, "moving_mean_initializer": {"class_name": "Zeros", "config": {}}, "moving_variance_initializer": {"class_name": "Ones", "config": {}}, "beta_regularizer": null, "gamma_regularizer": null, "beta_constraint": null, "gamma_constraint": null}, "inbound_nodes": [[["separable_conv_1_normal_left5_12", 0, 0, {}]]]}, {"name": "activation_439", "class_name": "Activation", "config": {"name": "activation_439", "trainable": true, "activation": "relu"}, "inbound_nodes": [[["separable_conv_1_bn_normal_left1_12", 0, 0, {}]]]}, {"name": "activation_441", "class_name": "Activation", "config": {"name": "activation_441", "trainable": true, "activation": "relu"}, "inbound_nodes": [[["separable_conv_1_bn_normal_right1_12", 0, 0, {}]]]}, {"name": "activation_443", "class_name": "Activation", "config": {"name": "activation_443", "trainable": true, "activation": "relu"}, "inbound_nodes": [[["separable_conv_1_bn_normal_left2_12", 0, 0, {}]]]}, {"name": "activation_445", "class_name": "Activation", "config": {"name": "activation_445", "trainable": true, "activation": "relu"}, "inbound_nodes": [[["separable_conv_1_bn_normal_right2_12", 0, 0, {}]]]}, {"name": "activation_447", "class_name": "Activation", "config": {"name": "activation_447", "trainable": true, "activation": "relu"}, "inbound_nodes": [[["separable_conv_1_bn_normal_left5_12", 0, 0, {}]]]}, {"name": "separable_conv_2_normal_left1_12", "class_name": "SeparableConv2D", "config": {"name": "separable_conv_2_normal_left1_12", "trainable": true, "filters": 176, "kernel_size": [5, 5], "strides": [1, 1], "padding": "same", "data_format": "channels_last", "dilation_rate": [1, 1], "activation": "linear", "use_bias": false, "bias_initializer": {"class_name": "Zeros", "config": {}}, "bias_regularizer": null, "activity_regularizer": null, "bias_constraint": null, "depth_multiplier": 1, "depthwise_initializer": {"class_name": "VarianceScaling", "config": {"scale": 1.0, "mode": "fan_avg", "distribution": "uniform", "seed": null}}, "pointwise_initializer": {"class_name": "VarianceScaling", "config": {"scale": 1.0, "mode": "fan_avg", "distribution": "uniform", "seed": null}}, "depthwise_regularizer": null, "pointwise_regularizer": null, "depthwise_constraint": null, "pointwise_constraint": null}, "inbound_nodes": [[["activation_439", 0, 0, {}]]]}, {"name": "separable_conv_2_normal_right1_12", "class_name": "SeparableConv2D", "config": {"name": "separable_conv_2_normal_right1_12", "trainable": true, "filters": 176, "kernel_size": [3, 3], "strides": [1, 1], "padding": "same", "data_format": "channels_last", "dilation_rate": [1, 1], "activation": "linear", "use_bias": false, "bias_initializer": {"class_name": "Zeros", "config": {}}, "bias_regularizer": null, "activity_regularizer": null, "bias_constraint": null, "depth_multiplier": 1, "depthwise_initializer": {"class_name": "VarianceScaling", "config": {"scale": 1.0, "mode": "fan_avg", "distribution": "uniform", "seed": null}}, "pointwise_initializer": {"class_name": "VarianceScaling", "config": {"scale": 1.0, "mode": "fan_avg", "distribution": "uniform", "seed": null}}, "depthwise_regularizer": null, "pointwise_regularizer": null, "depthwise_constraint": null, "pointwise_constraint": null}, "inbound_nodes": [[["activation_441", 0, 0, {}]]]}, {"name": "separable_conv_2_normal_left2_12", "class_name": "SeparableConv2D", "config": {"name": "separable_conv_2_normal_left2_12", "trainable": true, "filters": 176, "kernel_size": [5, 5], "strides": [1, 1], "padding": "same", "data_format": "channels_last", "dilation_rate": [1, 1], "activation": "linear", "use_bias": false, "bias_initializer": {"class_name": "Zeros", "config": {}}, "bias_regularizer": null, "activity_regularizer": null, "bias_constraint": null, "depth_multiplier": 1, "depthwise_initializer": {"class_name": "VarianceScaling", "config": {"scale": 1.0, "mode": "fan_avg", "distribution": "uniform", "seed": null}}, "pointwise_initializer": {"class_name": "VarianceScaling", "config": {"scale": 1.0, "mode": "fan_avg", "distribution": "uniform", "seed": null}}, "depthwise_regularizer": null, "pointwise_regularizer": null, "depthwise_constraint": null, "pointwise_constraint": null}, "inbound_nodes": [[["activation_443", 0, 0, {}]]]}, {"name": "separable_conv_2_normal_right2_12", "class_name": "SeparableConv2D", "config": {"name": "separable_conv_2_normal_right2_12", "trainable": true, "filters": 176, "kernel_size": [3, 3], "strides": [1, 1], "padding": "same", "data_format": "channels_last", "dilation_rate": [1, 1], "activation": "linear", "use_bias": false, "bias_initializer": {"class_name": "Zeros", "config": {}}, "bias_regularizer": null, "activity_regularizer": null, "bias_constraint": null, "depth_multiplier": 1, "depthwise_initializer": {"class_name": "VarianceScaling", "config": {"scale": 1.0, "mode": "fan_avg", "distribution": "uniform", "seed": null}}, "pointwise_initializer": {"class_name": "VarianceScaling", "config": {"scale": 1.0, "mode": "fan_avg", "distribution": "uniform", "seed": null}}, "depthwise_regularizer": null, "pointwise_regularizer": null, "depthwise_constraint": null, "pointwise_constraint": null}, "inbound_nodes": [[["activation_445", 0, 0, {}]]]}, {"name": "separable_conv_2_normal_left5_12", "class_name": "SeparableConv2D", "config": {"name": "separable_conv_2_normal_left5_12", "trainable": true, "filters": 176, "kernel_size": [3, 3], "strides": [1, 1], "padding": "same", "data_format": "channels_last", "dilation_rate": [1, 1], "activation": "linear", "use_bias": false, "bias_initializer": {"class_name": "Zeros", "config": {}}, "bias_regularizer": null, "activity_regularizer": null, "bias_constraint": null, "depth_multiplier": 1, "depthwise_initializer": {"class_name": "VarianceScaling", "config": {"scale": 1.0, "mode": "fan_avg", "distribution": "uniform", "seed": null}}, "pointwise_initializer": {"class_name": "VarianceScaling", "config": {"scale": 1.0, "mode": "fan_avg", "distribution": "uniform", "seed": null}}, "depthwise_regularizer": null, "pointwise_regularizer": null, "depthwise_constraint": null, "pointwise_constraint": null}, "inbound_nodes": [[["activation_447", 0, 0, {}]]]}, {"name": "separable_conv_2_bn_normal_left1_12", "class_name": "BatchNormalization", "config": {"name": "separable_conv_2_bn_normal_left1_12", "trainable": true, "axis": -1, "momentum": 0.9997, "epsilon": 0.001, "center": true, "scale": true, "beta_initializer": {"class_name": "Zeros", "config": {}}, "gamma_initializer": {"class_name": "Ones", "config": {}}, "moving_mean_initializer": {"class_name": "Zeros", "config": {}}, "moving_variance_initializer": {"class_name": "Ones", "config": {}}, "beta_regularizer": null, "gamma_regularizer": null, "beta_constraint": null, "gamma_constraint": null}, "inbound_nodes": [[["separable_conv_2_normal_left1_12", 0, 0, {}]]]}, {"name": "separable_conv_2_bn_normal_right1_12", "class_name": "BatchNormalization", "config": {"name": "separable_conv_2_bn_normal_right1_12", "trainable": true, "axis": -1, "momentum": 0.9997, "epsilon": 0.001, "center": true, "scale": true, "beta_initializer": {"class_name": "Zeros", "config": {}}, "gamma_initializer": {"class_name": "Ones", "config": {}}, "moving_mean_initializer": {"class_name": "Zeros", "config": {}}, "moving_variance_initializer": {"class_name": "Ones", "config": {}}, "beta_regularizer": null, "gamma_regularizer": null, "beta_constraint": null, "gamma_constraint": null}, "inbound_nodes": [[["separable_conv_2_normal_right1_12", 0, 0, {}]]]}, {"name": "separable_conv_2_bn_normal_left2_12", "class_name": "BatchNormalization", "config": {"name": "separable_conv_2_bn_normal_left2_12", "trainable": true, "axis": -1, "momentum": 0.9997, "epsilon": 0.001, "center": true, "scale": true, "beta_initializer": {"class_name": "Zeros", "config": {}}, "gamma_initializer": {"class_name": "Ones", "config": {}}, "moving_mean_initializer": {"class_name": "Zeros", "config": {}}, "moving_variance_initializer": {"class_name": "Ones", "config": {}}, "beta_regularizer": null, "gamma_regularizer": null, "beta_constraint": null, "gamma_constraint": null}, "inbound_nodes": [[["separable_conv_2_normal_left2_12", 0, 0, {}]]]}, {"name": "separable_conv_2_bn_normal_right2_12", "class_name": "BatchNormalization", "config": {"name": "separable_conv_2_bn_normal_right2_12", "trainable": true, "axis": -1, "momentum": 0.9997, "epsilon": 0.001, "center": true, "scale": true, "beta_initializer": {"class_name": "Zeros", "config": {}}, "gamma_initializer": {"class_name": "Ones", "config": {}}, "moving_mean_initializer": {"class_name": "Zeros", "config": {}}, "moving_variance_initializer": {"class_name": "Ones", "config": {}}, "beta_regularizer": null, "gamma_regularizer": null, "beta_constraint": null, "gamma_constraint": null}, "inbound_nodes": [[["separable_conv_2_normal_right2_12", 0, 0, {}]]]}, {"name": "normal_left3_12", "class_name": "AveragePooling2D", "config": {"name": "normal_left3_12", "trainable": true, "pool_size": [3, 3], "padding": "same", "strides": [1, 1], "data_format": "channels_last"}, "inbound_nodes": [[["normal_bn_1_12", 0, 0, {}]]]}, {"name": "normal_left4_12", "class_name": "AveragePooling2D", "config": {"name": "normal_left4_12", "trainable": true, "pool_size": [3, 3], "padding": "same", "strides": [1, 1], "data_format": "channels_last"}, "inbound_nodes": [[["adjust_bn_12", 0, 0, {}]]]}, {"name": "normal_right4_12", "class_name": "AveragePooling2D", "config": {"name": "normal_right4_12", "trainable": true, "pool_size": [3, 3], "padding": "same", "strides": [1, 1], "data_format": "channels_last"}, "inbound_nodes": [[["adjust_bn_12", 0, 0, {}]]]}, {"name": "separable_conv_2_bn_normal_left5_12", "class_name": "BatchNormalization", "config": {"name": "separable_conv_2_bn_normal_left5_12", "trainable": true, "axis": -1, "momentum": 0.9997, "epsilon": 0.001, "center": true, "scale": true, "beta_initializer": {"class_name": "Zeros", "config": {}}, "gamma_initializer": {"class_name": "Ones", "config": {}}, "moving_mean_initializer": {"class_name": "Zeros", "config": {}}, "moving_variance_initializer": {"class_name": "Ones", "config": {}}, "beta_regularizer": null, "gamma_regularizer": null, "beta_constraint": null, "gamma_constraint": null}, "inbound_nodes": [[["separable_conv_2_normal_left5_12", 0, 0, {}]]]}, {"name": "normal_add_1_12", "class_name": "Add", "config": {"name": "normal_add_1_12", "trainable": true}, "inbound_nodes": [[["separable_conv_2_bn_normal_left1_12", 0, 0, {}], ["separable_conv_2_bn_normal_right1_12", 0, 0, {}]]]}, {"name": "normal_add_2_12", "class_name": "Add", "config": {"name": "normal_add_2_12", "trainable": true}, "inbound_nodes": [[["separable_conv_2_bn_normal_left2_12", 0, 0, {}], ["separable_conv_2_bn_normal_right2_12", 0, 0, {}]]]}, {"name": "normal_add_3_12", "class_name": "Add", "config": {"name": "normal_add_3_12", "trainable": true}, "inbound_nodes": [[["normal_left3_12", 0, 0, {}], ["adjust_bn_12", 0, 0, {}]]]}, {"name": "normal_add_4_12", "class_name": "Add", "config": {"name": "normal_add_4_12", "trainable": true}, "inbound_nodes": [[["normal_left4_12", 0, 0, {}], ["normal_right4_12", 0, 0, {}]]]}, {"name": "normal_add_5_12", "class_name": "Add", "config": {"name": "normal_add_5_12", "trainable": true}, "inbound_nodes": [[["separable_conv_2_bn_normal_left5_12", 0, 0, {}], ["normal_bn_1_12", 0, 0, {}]]]}, {"name": "normal_concat_12", "class_name": "Concatenate", "config": {"name": "normal_concat_12", "trainable": true, "axis": -1}, "inbound_nodes": [[["adjust_bn_12", 0, 0, {}], ["normal_add_1_12", 0, 0, {}], ["normal_add_2_12", 0, 0, {}], ["normal_add_3_12", 0, 0, {}], ["normal_add_4_12", 0, 0, {}], ["normal_add_5_12", 0, 0, {}]]]}, {"name": "activation_448", "class_name": "Activation", "config": {"name": "activation_448", "trainable": true, "activation": "relu"}, "inbound_nodes": [[["normal_concat_12", 0, 0, {}]]]}, {"name": "sequential_2", "class_name": "Sequential", "config": {"name": "sequential_2", "layers": [{"class_name": "Flatten", "config": {"name": "flatten_2", "trainable": true, "batch_input_shape": [null, 7, 7, 1056], "dtype": "float32", "data_format": "channels_last"}}, {"class_name": "Dense", "config": {"name": "dense_4", "trainable": true, "units": 512, "activation": "relu", "use_bias": true, "kernel_initializer": {"class_name": "VarianceScaling", "config": {"scale": 1.0, "mode": "fan_avg", "distribution": "uniform", "seed": null}}, "bias_initializer": {"class_name": "Zeros", "config": {}}, "kernel_regularizer": null, "bias_regularizer": null, "activity_regularizer": null, "kernel_constraint": null, "bias_constraint": null}}, {"class_name": "Dense", "config": {"name": "dense_5", "trainable": true, "units": 512, "activation": "relu", "use_bias": true, "kernel_initializer": {"class_name": "VarianceScaling", "config": {"scale": 1.0, "mode": "fan_avg", "distribution": "uniform", "seed": null}}, "bias_initializer": {"class_name": "Zeros", "config": {}}, "kernel_regularizer": null, "bias_regularizer": null, "activity_regularizer": null, "kernel_constraint": null, "bias_constraint": null}}, {"class_name": "Dropout", "config": {"name": "dropout_2", "trainable": true, "rate": 0.25, "noise_shape": null, "seed": null}}, {"class_name": "Dense", "config": {"name": "dense_6", "trainable": true, "units": 3, "activation": "softmax", "use_bias": true, "kernel_initializer": {"class_name": "VarianceScaling", "config": {"scale": 1.0, "mode": "fan_avg", "distribution": "uniform", "seed": null}}, "bias_initializer": {"class_name": "Zeros", "config": {}}, "kernel_regularizer": null, "bias_regularizer": null, "activity_regularizer": null, "kernel_constraint": null, "bias_constraint": null}}]}, "inbound_nodes": [[["activation_448", 0, 0, {}]]]}], "input_layers": [["input_2", 0, 0]], "output_layers": [["sequential_2", 1, 0]]}, "keras_version": "2.2.4", "backend": "tensorflow"}